GradientEpisodicMemory/results/gem19_05.pt (torch_old, 362498 bytes, 8 tensors)

tensor f4 [21]
0.0 0.0 1.0 2.0 3.0 4.0 5.0 6.0
7.0 8.0 9.0 10.0 11.0 12.0 13.0 14.0
15.0 16.0 17.0 18.0 19.0
00000000: 0000 0000 0000 0000 0000 803f 0000 0040
00000010: 0000 4040 0000 8040 0000 a040 0000 c040
00000020: 0000 e040 0000 0041 0000 1041 0000 2041
00000030: 0000 3041 0000 4041 0000 5041 0000 6041
00000040: 0000 7041 0000 8041 0000 8841 0000 9041
00000050: 0000 9841

tensor f4 [21, 20]
0.1128 0.1045 0.1181 0.1138 0.0988 0.0848 0.0761 0.0872
0.0802 0.0687 0.0691 0.0657 0.0535 0.0429 0.0399 0.0514
0.0681 0.0672 0.0783 0.0688 0.703 0.6478 0.6415 0.448
0.393 0.2668 0.2189 0.146 0.1249 0.1097 0.1059 0.0999
0.0961 0.104 0.1149 0.1394 0.1835 0.2184 0.22 0.2253
0.859 0.8708 0.8638 0.6875 0.6163 0.4422 0.3526 0.2385
0.1992 0.1687 0.1571 0.1424 0.121 0.1124 0.1132 0.1253
0.1914 0.2249 0.2363 0.2557 0.8649 0.8831 0.8836 0.7586
0.691 0.4921 0.3854 0.2259 0.1856 0.1603 0.1659 0.1487
0.1368 0.1306 0.13 0.1383 0.1657 0.1725 0.1672 0.1678
0.8574 0.8893 0.8896 0.8558 0.802 0.666 0.5568 0.3291
0.227 0.1595 0.151 0.1391 0.1186 0.1055 0.101 0.1088
0.1437 0.1821 0.1901 0.1998 0.8377 0.8796 0.8857 0.8722
0.8529 0.7604 0.682 0.4523 0.3413 0.2317 0.2163 0.162
0.1399 0.118 0.1173 0.1161 0.149 0.183 0.1938 0.2046
0.8198 0.8421 0.8456 0.8537 0.8525 0.815 0.769 0.5659
0.4506 0.2937 0.2717 0.2088 0.1721 0.1536 0.1538 0.1551
0.1648 0.1908 0.187 0.185 0.858 0.887 0.8954 0.8996
0.8997 0.8846 0.8635 0.7364 0.5868 0.4174 0.371 0.2608
0.1938 0.1544 0.1478 0.1449 0.1454 0.1523 0.1531 0.1524
0.8614 0.8938 0.8972 0.9138 0.911 0.9156 0.9088 0.8687
0.816 0.6734 0.6287 0.471 0.3455 0.2387 0.2143 0.1793
0.1694 0.1833 0.1825 0.1771 0.8381 0.8651 0.868 0.8803
0.8819 0.8901 0.8909 0.8737 0.8665 0.7831 0.7438 0.6143
0.4662 0.3061 0.2643 0.2006 0.1676 0.1695 0.1678 0.1576
0.8491 0.8714 0.8805 0.8886 0.8852 0.8848 0.8882 0.8949
0.8927 0.8682 0.8468 0.7776 0.6093 0.4251 0.3772 0.2764
0.1898 0.1887 0.1825 0.1717 0.7949 0.8208 0.8288 0.845
0.8423 0.847 0.8504 0.8336 0.8454 0.8194 0.8147 0.7215
0.6078 0.445 0.3908 0.2922 0.2057 0.1919 0.1869 0.1646
0.8739 0.899 0.902 0.9055 0.9051 0.9023 0.8995 0.8848
0.8844 0.8802 0.8769 0.855 0.7599 0.5978 0.5349 0.3987
00000000: b003 e73d 1904 d63d 6ade f13d f90f e93d
00000010: a857 ca3d 9fab ad3d 51da 9b3d ea95 b23d
00000020: e63f a43d 96b2 8c3d 4d84 8d3d b98d 863d
00000030: d122 5b3d e9b7 2f3d 2f6e 233d ce88 523d
00000040: 0378 8b3d 27a0 893d c05b a03d 04e7 8c3d
00000050: cff7 333f 39d6 253f 5839 243f 4260 e53e
00000060: 4c37 c93e 029a 883e 5227 603e 0681 153e
00000070: 92cb ff3d 65aa e03d 19e2 d83d 5f98 cc3d
00000080: 14d0 c43d f4fd d43d b150 eb3d e0be 0e3e
00000090: 6de7 3b3e 40a4 5f3e ae47 613e 0bb5 663e
000000a0: 6de7 5b3f c0ec 5e3f ff21 5d3f 0000 303f
000000b0: d6c5 1d3f 0a68 e23e fd87 b43e 5839 743e
000000c0: 16fb 4b3e b1bf 2c3e d3de 203e 4ed1 113e
000000d0: d9ce f73d f931 e63d 67d5 e73d a54e 003e
000000e0: 5dfe 433e 304c 663e a1f8 713e 1ceb 823e
000000f0: 166a 5d3f d712 623f 9c33 623f 9c33 423f
00000100: 60e5 303f 88f4 fb3e 2653 c53e 5452 673e
00000110: ed0d 3e3e af25 243e b1e1 293e d044 183e
00000120: 4d15 0c3e 02bc 053e b81e 053e 849e 0d3e
00000130: 43ad 293e d7a3 303e 7a36 2b3e c3d3 2b3e
00000140: 917e 5b3f 2aa9 633f d3bc 633f b515 5b3f
00000150: df4f 4d3f fa7e 2a3f 728a 0e3f cc7f a83e
00000160: b072 683e f853 233e be9f 1a3e 3b70 0e3e
00000170: 8fe4 f23d 6210 d83d 17d9 ce3d 89d2 de3d
00000180: 1826 133e 6c78 3a3e 93a9 423e 5f98 4c3e
00000190: 8273 563f 772d 613f 3cbd 623f 8048 5f3f
000001a0: a857 5a3f 93a9 423f 8d97 2e3f de93 e73e
000001b0: e0be ae3e c442 6d3e bf7d 5d3e 54e3 253e
000001c0: f241 0f3e fca9 f13d fb3a f03d d6c5 ed3d
000001d0: 7593 183e 5a64 3b3e 8273 463e aa82 513e
000001e0: 6ade 513f de93 573f 3e79 583f 158c 5a3f
000001f0: 713d 5a3f d7a3 503f 2fdd 443f d3de 103f
00000200: 0bb5 e63e d95f 963e 431c 8b3e abcf 553e
00000210: fb3a 303e 5249 1d3e bf7d 1d3e 89d2 1e3e
00000220: 55c1 283e 1361 433e ee7c 3f3e a470 3d3e
00000230: e3a5 5b3f 6f12 633f ef38 653f 304c 663f
00000240: bd52 663f 2575 623f 560e 5d3f b684 3c3f
00000250: 8638 163f 74b5 d53e b6f3 bd3e 9487 853e
00000260: 8273 463e 091b 1e3e e258 173e aa60 143e
00000270: bde3 143e 88f4 1b3e 3fc6 1c3e bf0e 1c3e
00000280: b684 5c3f 14d0 643f e6ae 653f ccee 693f
00000290: 4c37 693f c364 6a3f 1ea7 683f 2063 5e3f
000002a0: 60e5 503f f163 2c3f 7cf2 203f e926 f13e
000002b0: 60e5 b03e c66d 743e 7671 5b3e 6b9a 373e
000002c0: 3277 2d3e ffb2 3b3e 48e1 3a3e b459 353e
000002d0: b98d 563f 3277 5d3f 3f35 5e3f 575b 613f
000002e0: 33c4 613f 98dd 633f 0612 643f ceaa 5f3f
000002f0: f2d2 5d3f 3e79 483f ad69 3e3f c442 1d3f
00000300: c4b1 ee3e 24b9 9c3e 5452 873e 166a 4d3e
00000310: 569f 2b3e 6891 2d3e c3d3 2b3e e561 213e
00000320: 9e5e 593f 1214 5f3f 7368 613f 4a7b 633f
00000330: 789c 623f 4182 623f 1361 633f 2b18 653f
00000340: fd87 643f 5b42 5e3f e3c7 583f cb10 473f
00000350: 16fb 1b3f b5a6 d93e 5c20 c13e 4d84 8d3e
00000360: ee5a 423e 933a 413e 48e1 3a3e 20d2 2f3e
00000370: 917e 4b3f f31f 523f 3d2c 543f ec51 583f
00000380: f9a0 573f fed4 583f d0b3 593f cf66 553f
00000390: 226c 583f 33c4 513f 2e90 503f 39b4 383f
000003a0: c898 1b3f 0ad7 e33e f016 c83e 3d9b 953e
000003b0: 05a3 523e 6f81 443e b762 3f3e e78c 283e
000003c0: e9b7 5f3f dd24 663f 79e9 663f d9ce 673f
000003d0: a2b4 673f 22fd 663f a245 663f 4182 623f
000003e0: 0a68 623f ca54 613f 857c 603f 48e1 5a3f
000003f0: ce88 423f 6c09 193f 35ef 083f 6822 cc3e

net.net.0.weight f4 [100, 784]
-0.046169613 0.0491689 0.040088817 0.06260161 0.03809984 0.04224974 0.07641901 -0.05613563
0.036705468 -0.05510768 -0.026274448 0.023867423 0.10631771 0.09832095 0.0073070233 0.06354603
0.042260613 0.007999032 0.010016716 -0.009267824 -0.070938654 0.0019272648 -0.02303939 -0.049124178
-0.03861652 0.030306652 0.05885324 0.06793097 -0.06180893 -0.04827969 -0.045299493 -0.00078478456
0.014081813 0.07710806 -0.019079743 0.0891709 0.12862292 0.02418594 0.019506922 0.09422108
0.11054035 0.1587817 0.027946074 0.060245845 -0.020821998 0.06586445 -0.019321525 -0.0051492597
-0.07565483 0.07592372 -0.07509325 -0.022066893 -0.015562594 0.030988403 0.018380709 0.016402692
-0.030823838 -0.012771718 -0.038176004 -0.05146246 -0.0052589397 0.005564134 0.021832436 0.019420428
0.14923413 0.09804882 0.036975466 0.023337977 0.007828759 0.060161103 -0.0039045874 0.025545703
0.04025636 -0.040935837 0.054124087 -0.04041511 0.031981304 -0.08144558 0.046299186 0.012229752
-0.07672778 0.055805504 0.0571727 0.064199045 -0.006686881 0.04068373 -0.0037419458 0.006485711
-0.03940447 0.054775037 0.008807807 -0.002347295 0.032094672 0.07474058 0.00034919896 0.07367287
-0.035329316 0.14010939 -0.02036869 -0.08433862 -0.060050543 -0.0089342045 -0.050267816 -0.025697649
-0.013638951 0.095643796 0.093316466 0.043024488 -0.011362222 -0.06682453 -0.059562776 0.039915428
-0.04294977 -0.036375884 -0.004274839 -0.014719308 0.035357833 -0.03498825 -0.04206695 0.1027639
0.12680686 0.14874409 0.022267882 -0.034822144 0.028373744 -0.024305787 -0.05419539 -0.062140107
0.00022348731 -0.118128255 -0.06251017 0.030632602 0.06685878 -0.0019288486 0.058289018 0.0116930595
-0.006170644 -0.042556804 -0.023374798 0.009161338 0.03224893 0.056659523 -0.04238265 -0.08759811
-0.037195582 -0.10569637 -0.0919771 0.013743698 0.05078759 0.060275674 0.057224493 0.03691826
0.036656734 0.15840323 -0.036688577 -0.07574609 -0.01883418 -0.17057689 -0.0646553 0.017163951
0.10417731 0.05913265 -0.04229298 0.051019624 -0.06380921 -0.042315222 0.08202164 -0.067612134
-0.07591384 -0.025574282 0.0024955086 -0.058266096 -0.09769044 -0.01110599 -0.08127674 -0.10864763
-0.053686876 0.06378071 0.021846088 0.043981716 0.099314205 -0.105946496 -0.029911434 0.043635305
0.067911 -0.11967253 -0.080446914 -0.103707805 0.014433178 -0.04619115 -0.05469553 -0.065046705
0.04982562 -0.027839685 0.04289055 0.062113564 0.059975892 -0.051093973 -0.035239343 -0.062016718
0.01891901 -0.05854204 -0.2144068 -0.055756345 -0.15422297 -0.04642083 -0.07505109 -0.10806672
-0.007030344 0.06603016 0.030749572 0.05575957 -0.03858568 -0.05631917 0.008738634 -0.050122067
-0.05621214 -0.068776265 -0.038064837 -0.049518548 -0.021195814 0.0057430826 0.020048873 -0.045734506
0.011387652 -0.08310477 -0.0633773 -0.02430839 -0.14348198 0.018733542 -0.1886535 -0.053498276
-0.026296686 -0.059564084 -0.08681407 -0.1424965 -0.048596304 0.05498181 0.019654509 0.031088166
-0.134945 -0.16511537 -0.17263213 -0.086322665 -0.20992489 -0.11079115 -0.09792486 -0.11648043
0.004589044 0.022023533 0.060527742 0.034060806 -0.028011896 0.0018042258 -0.0715549 0.0055787717
00000000: 591c 3dbd 5465 493d 2c34 243d 4635 803d
00000010: 940e 1c3d 100e 2d3d 9281 9c3d 79ee 65bd
00000020: 7958 163d 97b8 61bd 833d d7bc 9d85 c33c
00000030: 19bd d93d 7f5c c93d c16f ef3b 6c24 823d
00000040: 7719 2d3d 5f0e 033c 271d 243c 12d8 17bc
00000050: 4948 91bd 479c fc3a 1abd bcbc 6f36 49bd
00000060: 5b2c 1ebd a845 f83c 1810 713d 641f 8b3d
00000070: 5c2b 7dbd edc0 45bd f68b 39bd 00ba 4dba
00000080: 68b7 663c d5ea 9d3d 1f4d 9cbc 3c9f b63d
00000090: bab5 033e 9821 c63c fbcc 9f3c fbf6 c03d
000000a0: fb62 e23d ac97 223e 2aef e43c 59c4 763d
000000b0: e592 aabc f1e3 863d 2d48 9ebc 1fbb a8bb
000000c0: ebf0 9abd e57d 9b3d 7dca 99bd a1c5 b4bc
000000d0: 40fa 7ebc 64db fd3c 2493 963c f05e 863c
000000e0: 4682 fcbc 7840 51bc 715e 1cbd 4dca 52bd
000000f0: 2f53 acbb 5753 b63b f0d9 b23c 9717 9f3c
00000100: d5d0 183e d2cd c83d 9673 173d 492f bf3c
00000110: 3244 003c 7d6b 763d 1be4 7fbb 3945 d13c
00000120: dae3 243d 56ac 27bd 38b1 5d3d 508a 25bd
00000130: d4fe 023d f1cc a6bd 37a4 3d3d 4c5f 483c
00000140: 7423 9dbd 5094 643d ec2d 6a3d ca7a 833d
00000150: a01d dbbb fca3 263d 6f3b 75bb 1686 d43b
00000160: 9566 21bd ca5b 603d 9f4e 103c 13d5 19bb
00000170: b475 033d 9711 993d b114 b739 cde1 963d
00000180: 79b5 10bd d678 0f3e 3ddc a6bc bab9 acbd
00000190: 8ff7 75bd c560 12bc a0e5 4dbd e083 d2bc
000001a0: e875 5fbc e5e0 c33d b41c bf3d 723a 303d
000001b0: 9d28 3abc 4ddb 88bd 19f8 73bd 5c7e 233d
000001c0: 19ec 2fbd e1fe 14bd f313 8cbb 4129 71bc
000001d0: 60d3 103d d74f 0fbd 654e 2cbd e175 d23d
000001e0: a8d9 013e 5f50 183e 226b b63c aaa1 0ebd
000001f0: 0e70 e83c ee1c c7bc fcfb 5dbd a086 7ebd
00000200: eb57 6a39 3aed f1bd 5505 80bd 39f1 fa3c
00000210: 42ed 883d 6bd1 fcba 77c0 6e3d 3f94 3f3c
00000220: 1d33 cabb 0b50 2ebd 817c bfbc 7019 163c
00000230: 7417 043d d113 683d 6e99 2dbd a366 b3bd
00000240: 655a 18bd 5777 d8bd 7d5e bcbd 3f2d 613c
00000250: a606 503d a0e3 763d 3b64 6a3d 9a37 173d
00000260: 5f25 163d 7534 223e c346 16bd c420 9bbd
00000270: 234a 9abc b5ab 2ebe ff69 84bd 6a9b 8c3c
00000280: ea5a d53d 1435 723d 673b 2dbd f4f9 503d
00000290: 67ae 82bd ba52 2dbd f6fa a73d 3b78 8abd
000002a0: b778 9bbd 2881 d1bc b08b 233b 6ea8 6ebd
000002b0: ed11 c8bd e6f5 35bc 6b74 a6bd a682 debd
000002c0: c5e6 5bbd 769f 823d 91f6 b23c 2c26 343d
000002d0: 3f65 cb3d 7afa d8bd d308 f5bc efba 323d
000002e0: ec14 8b3d df16 f5bd 5ac1 a4bd c264 d4bd
000002f0: 2379 6c3c ee32 3dbd 6c08 60bd 3537 85bd
00000300: f315 4c3d 0d10 e4bc 00ae 2f3d cb6a 7e3d
00000310: 48a9 753d ea47 51bd 2157 10bd 3e05 7ebd
00000320: 0afc 9a3c c7c9 6fbd 758d 5bbe c460 64bd
00000330: a0ec 1dbe c523 3ebd 63b4 99bd 1652 ddbd
00000340: cd5e e6bb d23a 873d 87e6 fb3c 2664 643d
00000350: 050c 1ebd eeae 66bd 7d2c 0f3c cc4c 4dbd
00000360: b33e 66bd 92da 8cbd e0e9 1bbd f6d3 4abd
00000370: d8a2 adbc 7830 bc3b 893d a43c 1b54 3bbd
00000380: 4693 3a3c d532 aabd f5cb 81bd 6422 c7bc
00000390: f1ec 12be 1677 993c 622e 41be 0221 5bbd
000003a0: 266c d7bc 78f9 73bd 93cb b1bd 9aea 11be
000003b0: eb0c 47bd 9b34 613d 7e02 a13c 9cac fe3c
000003c0: 062f 0abe 0114 29be 7ac6 30be f0c9 b0bd
000003d0: 8df6 56be 78e6 e2bd d48c c8bd 4b8d eebd
000003e0: b15f 963b b26a b43c f0eb 773d 5883 0b3d
000003f0: 3479 e5bc c67b ec3a 608b 92bd 21ce b63b

net.net.0.bias f4 [100]
-0.11940788 0.23277043 -0.027082726 0.50406015 0.27511296 -0.007673683 0.28250873 0.24403879
-0.26248148 -0.008208088 0.105713144 -0.032846924 0.48956564 0.031392965 0.32873878 0.0029705008
-0.044134177 -0.010928821 0.07975133 0.024021301 -0.03389595 -0.00061070157 -0.073661745 0.012184279
-0.057853315 -0.09711763 0.05418522 -0.013813354 0.0128451185 0.018747868 -0.05723966 0.023442714
0.2752743 -0.2779913 -0.46401384 0.24684678 0.17701183 0.060809113 -0.16805185 0.11298976
-0.2067602 0.003829948 -0.032738525 0.36062053 0.25210065 0.58474886 0.062569 -0.02751601
-0.055931028 0.028771454 -0.5174121 0.06890666 0.03310434 -0.1517381 0.43657932 -0.062452357
-0.024219988 -0.10580477 -0.19272509 -0.02602164 -0.033359196 0.011898786 0.11714076 -0.044832185
0.007549297 0.11376469 0.5049776 -0.16724052 -0.08495925 0.33116618 -0.0068758246 -0.13126174
0.16760455 0.101529926 -0.47256586 0.38736397 0.19382791 0.017251821 0.12397796 0.5098681
0.43543127 0.07914735 -0.19100496 0.013597266 0.0039261207 0.00435667 0.020523537 -0.045172226
-0.17845477 -0.0064835055 0.45486388 0.25868407 0.1638807 -0.00087019854 -0.004995044 0.7088785
-0.027533986 -0.12641606 0.11329555 -0.12606998
00000000: 1e8c f4bd 5f5b 6e3e 98dc ddbc 160a 013f
00000010: 9bdb 8c3e 8573 fbbb fca4 903e 4ee5 793e
00000020: f963 86be 377b 06bc 2280 d83d 7f8a 06bd
00000030: 59a8 fa3e e995 003d 7350 a83e bcac 423b
00000040: 0ac6 34bd cc0e 33bc aa54 a33d 52c8 c43c
00000050: 7bd6 0abd 7d17 20ba f8db 96bd 92a0 473c
00000060: 99f7 6cbd 9ce5 c6bd 52f1 5d3d 6851 62bc
00000070: 5574 523c 2195 993c 2274 6abd ef0a c03c
00000080: c1f0 8c3e e054 8ebe 3993 edbe 67c5 7c3e
00000090: 9742 353e fa12 793d c915 2cbe 2d67 e73d
000000a0: f2b8 53be ddff 7a3b d518 06bd 41a3 b83e
000000b0: 5613 813e 1ab2 153f 2d24 803d 4169 e1bc
000000c0: ef17 65bd 1db2 eb3c 1f75 04bf ef1e 8d3d
000000d0: 6b98 073d 3c61 1bbe 5387 df3e 0bce 7fbd
000000e0: ff68 c6bc 2cb0 d8bd ba59 45be 562b d5bc
000000f0: a7a3 08bd 20f3 423c 7fe7 ef3d f4a1 37bd
00000100: 1860 f73b 76fd e83d 3646 013f 1941 2bbe
00000110: 1eff adbd 9d8e a93e 994e e1bb 7a69 06be
00000120: 87a0 2b3e ecee cf3d 27f4 f1be 9254 c63e
00000130: d37a 463e b153 8d3c 28e8 fd3d b786 023f
00000140: d9f0 de3e 0118 a23d ce96 43be 11c7 5e3c
00000150: b0a6 803b 66c2 8e3b fa20 a83c 8306 39bd
00000160: d9bc 36be 9673 d4bb ebe3 e83e 3d72 843e
00000170: 58d0 273e 091e 64ba 77ad a3bb 1079 353f
00000180: f48e e1bc 3673 01be 7f07 e83d 7d18 01be

net.net.2.weight f4 [100, 100]
0.39665258 0.083003245 0.0017028875 0.19090651 0.023787327 -0.12740865 -0.011729039 -0.16916874
-0.3723409 -0.08178419 -0.031953197 -0.04261765 0.07442037 -0.2003906 0.07308728 -0.040783647
-0.13674472 -0.022923589 0.048507303 0.085994095 0.34585235 0.13526952 0.21709678 0.04779519
0.18965843 0.14279757 0.028967416 -0.1467257 -0.18978931 0.102290936 -0.007522874 0.29373676
-0.15966743 0.029547755 -0.18082191 0.20889224 -0.0152086895 -0.038827922 -0.19805223 0.27103388
-0.0042898823 -0.00083048036 0.15289219 -0.41657904 -0.1799406 0.21969025 -0.06704298 0.31395555
-0.112809084 0.23903845 -0.16427238 0.012880287 0.24776894 -0.09019762 -0.009332778 -0.10043094
-0.16088587 -0.16783948 -0.08266456 -0.050893337 0.016738044 0.004633754 -0.18671656 0.24976674
0.098482475 0.44355077 -0.17856264 0.112311766 -0.37330237 0.1555837 0.029148215 -0.017034689
0.09351052 0.29567876 -0.029931054 -0.24317572 -0.0584563 0.113184154 0.3178554 -0.13047795
-0.11473964 -0.017090017 -0.15902877 -0.25268292 0.053089887 0.09241562 -0.11025373 -0.031440232
0.021166077 0.2952648 -0.28019425 0.05386826 -0.11310706 -0.15155867 0.22039041 0.065645635
-0.18549706 -0.26447025 0.15250233 -0.43164963 -0.15507287 -0.14731318 -0.09473475 -0.13153787
0.07619875 -0.13441207 0.013180761 -0.06742409 0.17348728 -0.09654295 0.05405438 -0.09752634
-0.18619746 0.09122712 0.21106564 0.043885306 0.13031931 0.055587925 0.0068419334 0.13330919
-0.18308447 -0.020493103 -0.20326282 0.078123085 -0.14278792 0.09881205 -0.029502116 -0.13276738
0.006082299 0.06531643 -0.14748949 -0.072669394 0.06862233 -0.25070435 -0.016247518 -0.014233435
0.18381622 0.1778106 0.0144244265 -0.08257162 0.057232134 0.032912627 -0.27803192 0.16913073
-0.118541084 -0.18295671 0.02595864 -0.16133814 0.014143275 -0.061222818 0.0022118338 -0.08096392
-0.025779316 -0.0071672555 0.029095849 0.056417655 0.08867489 -0.022193933 0.10662223 0.31187594
-0.029189533 0.094969675 0.041158453 -0.02057058 -0.013516648 0.08770394 0.050657846 -0.104362905
0.11816118 -0.11021112 0.10205175 -0.017966816 0.17224705 -0.022023162 0.035488896 -0.12273159
-0.03117697 -0.24451226 0.07928282 0.32822862 -0.046128705 -0.21629977 0.032157667 0.05365822
0.0036849126 0.17229901 -0.032408915 -0.013726451 -0.08946097 -0.1470132 0.13595614 -0.07918422
-0.14507975 -0.013963657 0.1977226 -0.11003192 0.010170097 -0.018971732 -0.08714619 -0.009854111
-0.20954186 -0.28854626 0.15491748 0.22678083 0.112894684 -0.117463514 -0.13261285 0.058293235
0.06772112 0.14603639 0.11161799 0.12121176 -0.24943678 -0.08388086 0.029242432 0.06343714
0.23044273 -0.24134588 0.1505497 0.18784596 -0.053774532 -0.17921111 -0.15669736 0.11365898
0.16108239 0.12512799 0.15663981 -0.17575207 -0.21745095 -0.18925567 -0.053464122 -0.04778636
0.09206413 0.29857266 -0.11259519 0.030384086 -0.09142965 0.11131085 -0.108163044 -0.21868198
0.27932823 -0.09844931 -0.14203118 -0.06556437 0.036122967 -0.2135959 0.09157884 -0.19544679
0.047354724 -0.4418763 0.21544124 -0.3046551 -0.28146946 -0.12400456 -0.108009815 0.19493355
00000000: 0c16 cb3e 9bfd a93d 6c33 df3a ff7c 433e
00000010: a4dd c23c 6a77 02be 282b 40bc 923a 2dbe
00000020: 77a3 bebe 787e a7bd 5be1 02bd d88f 2ebd
00000030: b569 983d 3233 4dbe c9ae 953d c10c 27bd
00000040: cf06 0cbe 40ca bbbc 98af 463d ac1d b03d
00000050: 8f13 b13e 1884 0a3e 9e4e 5e3e e4c4 433d
00000060: d235 423e 8739 123e 134d ed3c 433f 16be
00000070: 2158 42be e97d d13d 7182 f6bb aa64 963e
00000080: dc7f 23be 220e f23c 6129 39be d9e7 553e
00000090: de2d 79bc 070a 1fbd 34ce 4abe f4c4 8a3e
000000a0: 2492 8cbb 98b4 59ba c58f 1c3e d949 d5be
000000b0: 5942 38be 7bf6 603e d44d 89bd c8be a03e
000000c0: 7308 e7bd 7fc6 743e 0537 28be d707 533c
000000d0: 24b7 7d3e 88b9 b8bd 82e8 18bc bdae cdbd
000000e0: 44bf 24be 1dde 2bbe 094c a9bd 8875 50bd
000000f0: 391e 893c bfd6 973b a032 3fbe dac2 7f3e
00000100: 2eb1 c93d 1619 e33e 20d9 36be b603 e63d
00000110: 7d21 bfbe 5551 1f3e 3dc8 ee3c 558c 8bbc
00000120: 7282 bf3d 3563 973e f831 f5bc 0e03 79be
00000130: e06f 6fbd 18cd e73d f1bd a23e 039c 05be
00000140: 9efc eabd 5d00 8cbc 70d8 22be a85f 81be
00000150: c874 593d 6744 bd3d b5cc e1bd 79c7 00bd
00000160: 7b64 ad3c f32c 973e 9f75 8fbe f7a4 5c3d
00000170: ada4 e7bd 3232 1bbe 06ae 613e 3871 863d
00000180: f1f2 3dbe a568 87be 9229 1c3e 2e01 ddbe
00000190: 6ccb 1ebe 44d9 16be 4b04 c2bd ddb1 06be
000001a0: 170e 9c3d 51a3 09be 1ef4 573c a415 8abd
000001b0: a6a6 313e 4fb8 c5bd 2068 5d3d e4bb c7bd
000001c0: 8caa 3ebe 49d5 ba3d 9721 583e 14c1 333d
000001d0: 6d72 053e 2ab0 633d 4c32 e03b 3482 083e
000001e0: 7f7a 3bbe 27e1 a7bc 2124 50be fffe 9f3d
000001f0: ff36 12be f95d ca3d 6cae f1bc 2cf4 07be
00000200: 064e c73b 9fc4 853d 7c07 17be b1d3 94bd
00000210: dd89 8c3d 525c 80be 8419 85bc 5a33 69bc
00000220: 523a 3c3e fb13 363e 6e54 6c3c 4f1b a9bd
00000230: 3e6c 6a3d 64cf 063d 335a 8ebe 9b30 2d3e
00000240: abc5 f2bd 0159 3bbe 37a7 d43c d335 25be
00000250: 32b9 673c c7c4 7abd 6af4 103b 69d0 a5bd
00000260: 252f d3bc 4cdb eabb 6b5a ee3c 3316 673d
00000270: 2e9b b53d 0dd0 b5bc c15c da3d 34ae 9f3e
00000280: e31e efbc 767f c23d c495 283d a283 a8bc
00000290: ee74 5dbc 209e b33d 9a7e 4f3d 38bc d5bd
000002a0: 7dfe f13d 5eb6 e1bd 8200 d13d 252f 93bc
000002b0: 8861 303e eb69 b4bc ce5c 113d b35a fbbd
000002c0: d866 ffbc 6c61 7abe 085f a23d 950d a83e
000002d0: 74f1 3cbd b07d 5dbe c2b7 033d b9c8 5b3d
000002e0: 937e 713b 276f 303e 36bf 04bd e9e4 60bc
000002f0: 5037 b7bd a18a 16be 1638 0b3e 562b a2bd
00000300: c98f 14be d3c7 64bc cb77 4a3e 6a58 e1bd
00000310: 7ba0 263c 9b6a 9bbc b479 b2bd 2373 21bc
00000320: 2492 56be 56bc 93be b0a2 1e3e 3c39 683e
00000330: 5435 e73d b690 f0bd aacb 07be e3c4 6e3d
00000340: 5fb1 8a3d 908a 153e f997 e43d df3d f83d
00000350: 5b6c 7fbe bac9 abbd d38d ef3c 55eb 813d
00000360: 2ef9 6b3e 6023 77be b329 1a3e b15a 403e
00000370: af42 5cbd 1e83 37be 4675 20be 0ac6 e83d
00000380: c8f2 243e 8d21 003e 3066 203e 5af8 33be
00000390: 76ab 5ebe 3dcc 41be 32fd 5abd a1bb 43bd
000003a0: 1e8c bc3d 84de 983e 4f98 e6bd 0ce8 f83c
000003b0: 783f bbbd f1f6 e33d 9684 ddbd 2bee 5fbe
000003c0: 1c04 8f3e cb9f c9bd 9f70 11be 9d46 86bd
000003d0: adf5 133d e2b8 5abe b08d bb3d 3423 48be
000003e0: 07f7 413d 9c3d e2be a19c 5c3e c1fb 9bbe
000003f0: c41c 90be 1af6 fdbd 4034 ddbd a99c 473e

net.net.2.bias f4 [100]
-0.056039233 -0.03499425 0.19340721 -0.1398354 -0.031939242 0.13938212 0.0062780194 -0.027478103
0.19163987 -0.0043987217 0.07576103 0.13018109 0.15381113 0.26897824 -0.044049293 0.3440176
-0.07947485 0.009885408 -0.0065728384 0.112094894 -0.0011675748 0.36331907 -0.06617616 0.4709014
0.10109983 -0.03173733 0.25614622 -0.072890945 -0.00676447 -0.014906852 -0.06613575 0.067590676
-0.054143984 -0.23056158 0.21480803 0.16518246 0.14732464 0.07895397 0.19550218 0.45908245
0.052419804 -0.007931654 -0.13026446 0.030231904 0.130986 0.07001058 -0.07387951 0.029245906
0.13368526 0.016972488 -0.027689677 -0.057427287 -0.03354396 0.029047206 0.009593959 0.067792915
0.10336604 0.13363747 0.01842463 -0.13855124 0.027422922 -0.0790283 -0.10410427 0.028677948
0.060353626 0.3816692 -0.012400949 -0.04281276 0.027600143 -0.021034835 -0.029567964 -0.31188595
-0.043756355 0.11526623 0.23511802 0.18469626 -0.016474437 -0.20545617 -0.26944622 -0.06247375
0.12259224 0.2027198 0.30874392 0.34888503 -0.07493567 -0.14946605 0.16402398 -0.031727493
0.05262025 -0.109918885 0.090215184 -0.17251982 -0.13555853 -0.046672907 -0.033389542 -0.07488996
-0.048812058 -0.07587811 0.023619397 -0.0083288355
00000000: 6589 65bd 2156 0fbd 8a0c 463e 0331 0fbe
00000010: b9d2 02bd 30ba 0e3e d8b7 cd3b c219 e1bc
00000020: 3e3d 443e 2723 90bb 9928 9b3d 314e 053e
00000030: aa80 1d3e 84b7 893e 086d 34bd 1323 b03e
00000040: b6c3 a2bd 68f6 213c f760 d7bb 0292 e53d
00000050: 4f09 99ba f504 ba3e 5e87 87bd fd19 f13e
00000060: 6d0d cf3d 01ff 01bd 9925 833e d947 95bd
00000070: 7da8 ddbb de3b 74bc 2e72 87bd fb6c 8a3d
00000080: 15c6 5dbd 5618 6cbe a3f6 5b3e 9725 293e
00000090: 45dc 163e 9eb2 a13d b931 483e db0c eb3e
000000a0: 26b6 563d c5f3 01bc 0c64 05be e6a8 f73c
000000b0: 3221 063e b561 8f3d 244e 97bd 1c95 ef3c
000000c0: cae4 083e e309 8b3c 76d5 e2bc e038 6bbd
000000d0: 6465 09bd 68f4 ed3c fb2f 1d3c 03d7 8a3d
000000e0: 93b1 d33d 43d8 083e 40ef 963c 60e0 0dbe
000000f0: 09a6 e03c 97d9 a1bd 9f34 d5bd 04ee ea3c
00000100: 5d35 773d 256a c33e 5a2d 4bbc 6f5c 2fbd
00000110: b219 e23c 3f51 acbc 8438 f2bc 84af 9fbe
00000120: dd39 33bd b410 ec3d c7c2 703e 0421 3d3e
00000130: 66f5 86bc 1a63 52be dbf4 89be 7ae4 7fbd
00000140: a411 fb3d c795 4f3e af13 9e3e 0fa1 b23e
00000150: df77 99bd a10d 19be e7f5 273e b0f4 01bd
00000160: 5588 573d 271d e1bd bdc2 b83d 09a9 30be
00000170: dbcf 0abe 172c 3fbd 79c3 08bd e85f 99bd
00000180: 27ef 47bd fc65 9bbd 777d c13c ab75 08bc

net.net.4.weight f4 [10, 100]
-0.7268068 -0.15109849 0.1651464 -0.6633536 -0.44019812 0.27970934 0.0780287 0.20433809
0.4381243 0.35324815 0.21326225 0.5037123 -0.10037507 -0.11534508 0.22155863 0.29531685
0.25724614 -0.15600485 0.40730634 -0.15223767 0.029764106 -0.4857424 0.08977305 0.41807482
-0.31208488 -0.093567684 -0.5900841 0.5218662 0.4877799 -0.2655926 0.44973734 0.46528867
-0.072168104 -0.4197437 0.03611947 0.25119582 0.26904643 0.12662658 -0.33567303 0.78550446
0.647025 -0.21365294 -0.35136515 0.20281087 0.45650405 0.46877232 0.13986203 -0.30565202
0.35155585 0.46933988 -0.26202658 0.18932861 -0.23789658 -0.7391551 -0.40329984 0.1416683
0.30195135 -0.2188337 0.026332455 -0.305621 -0.44551942 0.11476283 -0.37741092 -0.49595132
0.45581642 -0.449662 -0.0340892 -0.07201554 -0.11893082 -0.3988051 0.10679189 -0.013033516
-0.28419876 -0.23747495 -0.0027424123 0.031217357 -0.45197883 -0.55818397 -0.4571835 -0.35703138
-0.5593125 0.27577475 0.51991093 -0.42598101 0.12903981 -0.20629345 -0.35516042 -0.055287622
0.16852213 -0.51468 0.6817609 -0.35161084 -0.6748436 -0.44921067 -0.11247397 -0.25467274
-0.08143222 0.06380638 -0.07557749 0.2397275 -0.20564432 -0.14710376 0.06179323 0.30581337
-0.28239223 0.19507004 0.18460275 -0.6134442 0.33007333 -0.51803994 -0.4612438 -0.1343335
-0.21610399 -0.12323686 0.19660911 -0.30057302 0.15855195 -0.3038194 0.27378777 -0.02377103
0.2783148 -0.14374119 0.60301936 -0.28865597 -0.58645517 0.46972135 0.5740796 -0.20130886
-0.26219437 -0.025456242 -0.22904354 -0.16753997 0.003412135 0.8490744 -0.45037493 -0.2568814
-0.35612598 0.024642447 -0.013927549 -0.61350745 0.09057243 -0.33618286 -0.023655266 0.19349454
-0.4657176 -0.37854663 -0.14498769 -0.34465235 -0.33849305 1.0688171 -0.30075693 0.17393921
0.3878334 -0.10285072 0.14655884 -0.019261993 -0.2937066 -0.053761255 -0.38149425 0.42193922
-0.077837534 -0.13043116 0.30100045 -0.50516397 -0.0089210635 0.30261856 -0.5378189 0.17326072
0.077065766 -0.018419867 -0.08602051 -0.38673317 0.4424283 -0.2105698 -0.039609823 -0.16877733
-0.21163338 0.10860293 0.0792735 0.17409955 -0.2651744 -0.08757647 -0.3101116 0.11052394
-0.19607627 0.054844495 -0.621891 0.03826786 0.6986563 -0.22093837 -0.13738793 -0.29704547
0.5718167 0.5477808 0.010796148 0.2606966 0.33373746 -0.17587087 -0.11852535 -0.32848272
-0.130034 -0.37613815 0.21133274 -0.58437306 -0.2768177 0.4087028 0.22565994 -0.23620954
-0.1716647 0.18392509 -0.5426882 0.2832687 -0.42087224 -0.28005964 -0.26291224 -0.23716263
-0.028414844 0.61096823 -0.071486935 0.19935995 0.31602272 -0.06397399 0.38329992 -0.46147242
0.3918191 -0.56273186 -0.31621218 0.32653022 0.34901604 0.11968292 0.3143692 0.29040995
0.0749818 0.7189972 0.51107436 0.38396478 -0.05289091 -0.018493513 -0.35075757 0.12196605
-0.143281 -0.24819148 -0.1612857 0.48386666 0.029353078 -0.15647158 0.13109763 -0.09396585
0.28210974 -0.28388417 -0.054546352 -0.21786074 -0.2231821 0.5423263 0.5384882 -0.32382292
00000000: 0310 3abf 90b9 1abe 231c 293e 8bd1 29bf
00000010: a661 e1be 1036 8f3e 83cd 9f3d 013e 513e
00000020: d451 e03e f1dc b43e 6b61 5a3e 4af3 003f
00000030: 7291 cdbd 0b3a ecbd 44e0 623e c533 973e
00000040: c4b5 833e bcbf 1fbe 758a d03e 31e4 1bbe
00000050: dbd3 f33c 3ab3 f8be efda b73d e70d d63e
00000060: 97c9 9fbe 6aa0 bfbd c00f 17bf 0699 053f
00000070: 49be f93e c1fb 87be f943 e63e 513a ee3e
00000080: dfcc 93bd a5e8 d6be 02f2 133d bd9c 803e
00000090: 74c0 893e 66aa 013e 56dd abbe d216 493f
000000a0: 6ea3 253f d6c7 5abe 22e6 b3be a7ad 4f3e
000000b0: e6ba e93e ed02 f03e fe37 0f3e 6c7e 9cbe
000000c0: 21ff b33e 514d f03e 5928 86be 5cdf 413e
000000d0: 299b 73be 4539 3dbf 517d cebe 7f11 113e
000000e0: 5e99 9a3e f115 60be 29b7 d73c 5b7a 9cbe
000000f0: 1f1b e4be c608 eb3d 013c c1be 55ed fdbe
00000100: c560 e93e 193a e6be 1ea1 0bbd e27c 93bd
00000110: 0092 f3bd 2f30 ccbe b5b5 da3d 878a 55bc
00000120: 8082 91be a22c 73be 0bba 33bb 8bbb ff3c
00000130: c569 e7be 25e5 0ebf f513 eabe d1cc b6be
00000140: 1b2f 0fbf 5932 8d3e e218 053f 2f1a dabe
00000150: 0323 043e 973e 53be 96d7 b5be 4675 62bd
00000160: 1191 2c3e 12c2 03bf e287 2e3f 5606 b4be
00000170: 8dc2 2cbf f1fe e5be c158 e6bd 7764 82be
00000180: f0c5 a6bd ebac 823d 5fc8 9abd 207b 753e
00000190: 6d94 52be 5ea2 16be e61a 7d3d 9293 9c3e
000001a0: b795 90be 71c0 473e 8108 3d3e ae0a 1dbf
000001b0: 5fff a83e 449e 04bf 2628 ecbe b98e 09be
000001c0: 5d4a 5dbe 9b63 fcbd e653 493e b5e4 99be
000001d0: 715b 223e 378e 9bbe e92d 8c3e 77bb c2bc
000001e0: 477f 8e3e e430 13be 7a5f 1a3f b7ca 93be
000001f0: ed21 16bf 517f f03e e1f6 123f e923 4ebe
00000200: 573e 86be 9c89 d0bc 648a 6abe 998f 2bbe
00000210: 209e 5f3b f15c 593f 8b97 e6be f585 83be
00000220: 2556 b6be f5de c93c 6030 64bc d30e 1dbf
00000230: 0a7e b93d 2920 acbe b0c8 c1bc 6f23 463e
00000240: 8a72 eebe ddd0 c1be a777 14be 4676 b0be
00000250: f64e adbe 00cf 883f d0fc 99be 1f1d 323e
00000260: 1992 c63e 66a3 d2bd 8513 163e 54cb 9dbc
00000270: b660 96be c334 5cbd 3753 c3be 6b08 d83e
00000280: 4969 9fbd bf8f 05be bb1c 9a3e 6d52 01bf
00000290: a729 12bc d2f0 9a3e 80ae 09bf 426b 313e
000002a0: a8d4 9d3d 43e5 96bc 852b b0bd e401 c6be
000002b0: f685 e23e 9c9f 57be e93d 22bd f7d3 2cbe
000002c0: 6cb6 58be 376b de3d 255a a23d 2747 323e
000002d0: f0c4 87be 4b5b b3bd f3c6 9ebe 605a e23d
000002e0: 38c8 48be 9fa4 603d 4034 1fbf c2be 1c3d
000002f0: 24db 323f ab3d 62be 6caf 0cbe 5816 98be
00000300: 9462 123f 5d3b 0c3f 54e2 303c 067a 853e
00000310: a3df aa3e 7e17 34be 6bbd f2bd e32e a8be
00000320: a227 05be 2e95 c0be 9c67 583e 7999 15bf
00000330: 0dbb 8dbe 7e41 d13e 6613 673e eae0 71be
00000340: dfc8 2fbe dc56 3c3e 9ded 0abf 9808 913e
00000350: 917c d7be fa63 8fbe 6f9c 86be c3da 72be
00000360: 3fc6 e8bc 6a68 1c3f be67 92bd 0425 4c3e
00000370: bbcd a13e cc04 83bd e33f c43e 1d46 ecbe
00000380: 839c c83e 320f 10bf 90e6 a1be f82e a73e
00000390: 3bb2 b23e 521c f53d 00f5 a03e 9db0 943e
000003a0: 0f90 993d 3310 383f c5d5 023f 0897 c43e
000003b0: 24a4 58bd b57f 97bc 7f96 b3be 56c9 f93d
000003c0: 41b8 12be e825 7ebe 1428 25be 5fbd f73e
000003d0: de75 f03c 163a 20be 753e 063e 2b71 c0bd
000003e0: b070 903e 4459 91be ff6b 5fbd e316 5fbe
000003f0: d989 64be e5d5 0a3f 5dda 093f 1ecc a5be

net.net.4.bias f4 [10]
0.31116608 -0.23691726 -0.19383019 -0.4760268 0.323247 -0.11880355 -0.20070374 -0.26787654
0.62379956 0.23596404
00000000: 2951 9f3e 709a 72be 6c7b 46be c9b9 f3be
00000010: a180 a53e 474f f3bd 4885 4dbe 1d27 89be
00000020: 54b1 1f3f 8fa0 713e
