GradientEpisodicMemory/results/gem_mnist_rotations.pt_02_13.pt (torch_old, 445492 bytes, 12 tensors)

tensor f4 [41]
0.0 0.0 0.0 1.0 1.0 2.0 2.0 3.0
3.0 4.0 4.0 5.0 5.0 6.0 6.0 7.0
7.0 8.0 8.0 9.0 9.0 10.0 10.0 11.0
11.0 12.0 12.0 13.0 13.0 14.0 14.0 15.0
15.0 16.0 16.0 17.0 17.0 18.0 18.0 19.0
19.0
00000000: 0000 0000 0000 0000 0000 0000 0000 803f
00000010: 0000 803f 0000 0040 0000 0040 0000 4040
00000020: 0000 4040 0000 8040 0000 8040 0000 a040
00000030: 0000 a040 0000 c040 0000 c040 0000 e040
00000040: 0000 e040 0000 0041 0000 0041 0000 1041
00000050: 0000 1041 0000 2041 0000 2041 0000 3041
00000060: 0000 3041 0000 4041 0000 4041 0000 5041
00000070: 0000 5041 0000 6041 0000 6041 0000 7041
00000080: 0000 7041 0000 8041 0000 8041 0000 8841
00000090: 0000 8841 0000 9041 0000 9041 0000 9841
000000a0: 0000 9841

tensor f4 [41, 20]
0.1262 0.1161 0.1166 0.0908 0.0738 0.0732 0.0814 0.0905
0.0823 0.0884 0.0791 0.0806 0.0904 0.1111 0.1308 0.1187
0.1235 0.1175 0.1056 0.0972 0.7921 0.7816 0.7107 0.5707
0.4972 0.3522 0.2537 0.157 0.1277 0.1185 0.1173 0.1142
0.1228 0.1479 0.1679 0.191 0.1985 0.2133 0.2138 0.2131
0.7067 0.6952 0.6472 0.5361 0.4757 0.354 0.2745 0.1742
0.1494 0.1445 0.1455 0.1417 0.1495 0.1681 0.1741 0.172
0.1662 0.1586 0.1555 0.1648 0.8367 0.833 0.7881 0.6566
0.5829 0.4201 0.3118 0.2024 0.1685 0.1708 0.1497 0.1464
0.1537 0.1593 0.1655 0.1634 0.1603 0.1681 0.1678 0.1737
0.8324 0.8586 0.8157 0.7036 0.6352 0.4617 0.3512 0.2248
0.1772 0.1606 0.1226 0.1128 0.11 0.119 0.1301 0.1356
0.14 0.145 0.1367 0.1488 0.8074 0.8395 0.8301 0.762
0.6961 0.5714 0.454 0.2753 0.2381 0.2004 0.1889 0.174
0.1737 0.175 0.1829 0.1973 0.1927 0.1872 0.1805 0.1746
0.8299 0.8887 0.8826 0.8262 0.774 0.611 0.4599 0.2513
0.197 0.1784 0.1518 0.1384 0.1363 0.148 0.157 0.1714
0.1725 0.1736 0.1689 0.1815 0.8166 0.8593 0.8737 0.8431
0.8152 0.7039 0.563 0.3076 0.2488 0.1918 0.1468 0.1184
0.1035 0.0991 0.1049 0.1139 0.1164 0.1361 0.1323 0.1592
0.8312 0.8847 0.9017 0.8898 0.8633 0.7719 0.6494 0.3957
0.3157 0.2424 0.2008 0.1644 0.1487 0.1397 0.1417 0.1532
0.1585 0.1804 0.1838 0.211 0.8478 0.8944 0.9014 0.8863
0.8635 0.777 0.6622 0.415 0.3218 0.25 0.2123 0.1745
0.1654 0.1589 0.1576 0.1568 0.1542 0.1633 0.1679 0.1916
0.85 0.902 0.9156 0.9048 0.8891 0.8008 0.6842 0.4173
0.3225 0.2467 0.2057 0.1699 0.1557 0.1438 0.1457 0.1462
0.1534 0.1675 0.1701 0.1905 0.8296 0.8811 0.8965 0.8967
0.8839 0.8286 0.7322 0.4668 0.3536 0.245 0.1929 0.1456
0.1319 0.1334 0.1438 0.1621 0.1791 0.1968 0.1963 0.204
0.8644 0.911 0.9229 0.923 0.9179 0.885 0.8267 0.5819
0.4464 0.345 0.2436 0.1798 0.1533 0.14 0.1381 0.154
00000000: 933a 013e d6c5 ed3d fbcb ee3d 5af5 b93d
00000010: 7424 973d e2e9 953d 0bb5 a63d 1058 b93d
00000020: e78c a83d 0f0b b53d 2eff a13d 9d11 a53d
00000030: a323 b93d 6688 e33d 6ff0 053e fc18 f33d
00000040: 91ed fc3d d7a3 f03d d044 d83d cb10 c73d
00000050: 11c7 4a3f f016 483f 6ff0 353f 6519 123f
00000060: 0091 fe3e 8f53 b43e f7e4 813e 9cc4 203e
00000070: cac3 023e 21b0 f23d fb3a f03d b1e1 e93d
00000080: 917e fb3d 1973 173e faed 2b3e 8195 433e
00000090: 9643 4b3e 516b 5a3e 63ee 5a3e e336 5a3e
000000a0: 4bea 343f a1f8 313f e6ae 253f d93d 093f
000000b0: f38e f33e 7d3f b53e 448b 8c3e 7c61 323e
000000c0: 50fc 183e cff7 133e f4fd 143e ce19 113e
000000d0: 8716 193e 6822 2c3e 4547 323e c520 303e
000000e0: 5530 2a3e 0a68 223e 643b 1f3e 55c1 283e
000000f0: f931 563f 7d3f 553f ecc0 493f f016 283f
00000100: ef38 153f 5917 d73e 40a4 9f3e f241 4f3e
00000110: 448b 2c3e 32e6 2e3e f54a 193e e2e9 153e
00000120: 8863 1d3e 8a1f 233e d578 293e 5452 273e
00000130: af25 243e 6822 2c3e c3d3 2b3e 6ade 313e
00000140: 2b18 553f 36cd 5b3f b7d1 503f 211f 343f
00000150: 789c 223f f163 ec3e 7dd0 b33e f931 663e
00000160: eb73 353e 5474 243e b515 fb3d b003 e73d
00000170: ae47 e13d 46b6 f33d ef38 053e bada 0a3e
00000180: 295c 0f3e e17a 143e 16fb 0b3e 075f 183e
00000190: c4b1 4e3f 79e9 563f 6f81 543f 6f12 433f
000001a0: 9c33 323f 4547 123f b072 e83e 1ff4 8c3e
000001b0: 7dd0 733e a835 4d3e 006f 413e 0e2d 323e
000001c0: 6ade 313e 3333 333e 234a 3b3e 0309 4a3e
000001d0: 2653 453e 5bb1 3f3e fed4 383e 58ca 323e
000001e0: 5474 543f d881 633f 13f2 613f d881 533f
000001f0: dd24 463f 7f6a 1c3f 0378 eb3e 65aa 803e
00000200: 5eba 493e 7dae 363e 7671 1b3e bbb8 0d3e
00000210: 3a92 0b3e 508d 173e 9cc4 203e 7b83 2f3e
00000220: d7a3 303e 33c4 313e 1ff4 2c3e 23db 393e
00000230: b30c 513f 16fb 5b3f ceaa 5f3f 67d5 573f
00000240: f2b0 503f ca32 343f c520 103f bf7d 9d3e
00000250: 6dc5 7e3e 3867 443e bd52 163e b37b f23d
00000260: cff7 d33d f1f4 ca3d d0d5 d63d 6744 e93d
00000270: 2063 ee3d cc5d 0b3e a779 073e 5305 233e
00000280: 86c9 543f b37b 623f d0d5 663f efc9 633f
00000290: 3b01 5d3f 3d9b 453f 143f 263f 3199 ca3e
000002a0: 6ea3 a13e b537 783e 849e 4d3e 7958 283e
000002b0: d044 183e 840d 0f3e ce19 113e 76e0 1c3e
000002c0: d34d 223e c7ba 383e 1136 3c3e 6210 583e
000002d0: 6c09 593f 66f7 643f 27c2 663f 8fe4 623f
000002e0: 560e 5d3f 79e9 463f f085 293f e17a d43e
000002f0: f8c2 a43e 0000 803e 2c65 593e 21b0 323e
00000300: 9e5e 293e aeb6 223e e561 213e 2e90 203e
00000310: 9be6 1d3e 1d38 273e faed 2b3e ca32 443e
00000320: 9a99 593f 79e9 663f c364 6a3f f9a0 673f
00000330: 0f9c 633f 3b01 4d3f bb27 2f3f 58a8 d53e
00000340: b81e a53e ed9e 7c3e 05a3 523e 44fa 2d3e
00000350: d26f 1f3e 4f40 133e 6132 153e 74b5 153e
00000360: e414 1d3e 1f85 2b3e b22e 2e3e 6f12 433e
00000370: aa60 543f c58f 613f 0681 653f 228e 653f
00000380: 4547 623f 211f 543f 7671 3b3f 6900 ef3e
00000390: 0f0b b53e 48e1 7a3e 9487 453e 2b18 153e
000003a0: cb10 073e 029a 083e 4f40 133e 8bfd 253e
000003b0: fe65 373e f085 493e de02 493e 60e5 503e
000003c0: 5249 5d3f 4c37 693f 2d43 6c3f ba49 6c3f
000003d0: 7ffb 6a3f 5c8f 623f 9ca2 533f 66f7 143f
000003e0: 8a8e e43e d7a3 b03e 4772 793e 7e1d 383e
000003f0: adfa 1c3e 295c 0f3e 166a 0d3e 2db2 1d3e

net.net.0.weight f4 [100, 784]
-0.031851172 -0.01384519 -0.05440535 0.020542592 -0.050104253 0.027983392 0.04999036 0.03382746
0.08180004 -0.053262215 -0.020058049 -0.0063226405 0.053798813 -0.06378245 -0.054524023 -0.06722922
-0.04292974 -0.0071556834 0.060590044 0.051436674 -0.026737336 0.06455419 -0.07010568 0.051878378
-0.043030437 0.051109523 -0.050017092 0.07855603 -0.026291091 0.0450781 0.07078566 0.053359963
-0.06918492 0.05302504 0.03565662 -0.040135715 -0.028786754 -0.03976705 -0.058774203 0.0151984
0.086696684 -0.011086675 0.045370504 -0.06952472 0.01445565 0.03049869 -0.006080576 0.072669305
0.04966521 -0.037143756 0.02569618 -0.0029612493 0.015654184 0.05635777 0.051725954 0.04001738
-0.028382856 -0.06797978 -0.013872504 0.02644331 0.075774945 -0.009901327 -0.01368587 0.021310283
-0.013697709 0.003985152 0.08260221 0.07172005 0.037800428 -0.024906497 -0.016234916 0.06977304
-0.05865219 0.071527965 0.03832286 0.056642406 0.12743135 -0.047464702 0.05861589 0.04180339
-0.072978295 -0.014744222 -0.018558696 0.055126786 -0.0302786 0.07367259 -0.007340923 0.00733509
-0.08002755 0.02116687 0.0070655267 0.009525607 -0.09144987 0.046312682 -0.017193433 0.08039051
-0.0054548853 -0.05950354 -0.02305027 0.115256384 0.16889061 0.100152515 0.07991913 0.09677829
0.08649238 0.0016068491 0.07177774 -0.007544635 0.05019397 -0.026517797 0.06470317 0.04919149
-0.057665814 -0.05399851 0.025638973 0.081733696 -0.043501697 -0.018925088 -0.10269891 -0.013512658
-0.27201352 -0.23311624 -0.008361048 -0.09615744 -0.05305472 -0.2059652 -0.05512576 -0.06622437
0.049437996 0.07061232 0.036182918 0.036631573 0.07682673 -0.0008137338 -0.054677013 0.072017916
-0.085969925 -0.027320659 -0.05598694 -0.0003039688 0.053297043 0.0053495346 -0.07695266 -0.02591402
0.06170853 -0.08433197 -0.08515087 -0.109631546 -0.28586882 -0.16612571 -0.14159644 -0.14370629
-0.10370129 -0.06782149 -0.013929557 -0.030951442 -0.15305148 -0.10936018 -0.16438247 -0.18746945
-0.15999576 -0.025410008 -0.06721578 0.017426409 -0.020317528 -0.029457895 0.075815596 -0.062483568
-0.057316065 0.07090004 0.044861913 0.10416172 -0.0032309198 0.023026565 -0.016936773 -0.26434767
-0.42944866 -0.3092096 -0.14949098 -0.06700891 -0.062496033 0.0148684755 -0.034704212 -0.03714293
0.12618497 0.07600279 -0.024101363 -0.13127393 -0.11940534 -0.1064228 -0.0098383045 -0.017847847
-0.05303368 0.057295777 0.021610346 0.011223143 -0.05606206 0.062026966 0.035056528 0.0028806261
0.002507949 0.032831036 -0.096089534 -0.3505783 -0.46799752 -0.30477086 -0.14507926 0.15709825
-0.04815072 -0.014987523 0.113758184 0.040312383 0.027308065 0.016593134 0.04056224 -0.11271336
-0.17629546 -0.1364799 -0.09028982 0.034267493 0.041897137 0.010522426 -0.07838284 -0.011362128
0.033433944 0.00084369787 0.00856271 -0.01804039 0.01742475 -0.038381226 -0.2714445 -0.39226905
-0.44409245 -0.36956286 -0.08452557 0.20327926 -0.023641359 0.010893984 0.004494935 -0.19010273
-0.04104229 -0.032997094 0.028880097 -0.069911614 -0.13827182 -0.1451872 -0.28644663 -0.096684255
0.0498095 -0.047714867 0.034777176 0.06201741 -0.041288305 -0.024848532 0.025224533 0.0904764
00000000: 6076 02bd f0d6 62bc 25d8 5ebd f048 a83c
00000010: 1e3a 4dbd 6d3d e53c b1c2 4c3d aa8e 0a3d
00000020: c886 a73d 7b29 5abd c750 a4bc 272e cfbb
00000030: 255c 5c3d 60a0 82bd 9554 5fbd 79af 89bd
00000040: 18d7 2fbd 397a eabb 442d 783d 43af 523d
00000050: 4208 dbbc fd34 843d 9193 8fbd 6c7e 543d
00000060: af40 30bd 3858 513d b9de 4cbd fce1 a03d
00000070: 6a60 d7bc d0a3 383d 12f8 903d fa8f 5a3d
00000080: d3b0 8dbd c930 593d ad0c 123d 5965 24bd
00000090: 33d2 ebbc c6e2 22bd 38bd 70bd b602 793c
000000a0: 088e b13d e3a4 35bc 6cd6 393d fa62 8ebd
000000b0: 64d7 6c3c 64d8 f93c 923f c7bb a5d3 943d
000000c0: bf6d 4b3d 0d24 18bd cc80 d23c 8511 42bb
000000d0: 343d 803c 68d7 663d 98de 533d 44e9 233d
000000e0: 2a83 e8bc fc38 8bbd 8049 63bc a49f d83c
000000f0: e52f 9b3d 2d39 22bc b33a 60bc e792 ae3c
00000100: 5b6c 60bc e195 823b 592b a93d f6e1 923d
00000110: 9fd4 1a3d b608 ccbc 16ff 84bc 2be5 8e3d
00000120: 473d 70bd 417d 923d 6ef8 1c3d de01 683d
00000130: 5d7d 023e 596a 42bd 3717 703d 083a 2b3d
00000140: a575 95bd c091 71bc 6808 98bc a0cc 613d
00000150: d40a f8bc a8e1 963d 208c f0bb 325b f03b
00000160: 7ce5 a3bd 2566 ad3c ef85 e73b 4b11 1c3c
00000170: 124a bbbd 5eb2 3d3d 3ed9 8cbc c8a3 a43d
00000180: e5be b2bb fcb9 73bd ebd3 bcbc 8a0b ec3d
00000190: a9f1 2c3e c31c cd3d a4ac a33d b233 c63d
000001a0: eb22 b13d e99c d23a 3500 933d fc38 f7bb
000001b0: 3198 4d3d da3b d9bc 1883 843d 047d 493d
000001c0: fd32 6cbd 8b2d 5dbd d308 d23c ff63 a73d
000001d0: d62e 32bd c908 9bbc ce53 d2bd 3264 5dbc
000001e0: 5b45 8bbe 06b6 6ebe c7fc 08bc 31ee c4bd
000001f0: e84f 59bd 8be8 52be 8dcb 61bd a4a0 87bd
00000200: 7f7f 4a3d 319d 903d 8a34 143d fd0a 163d
00000210: 5557 9d3d c050 55ba 01f5 5fbd 217e 933d
00000220: 0011 b0bd 93cf dfbc 9052 65bd 005e 9fb9
00000230: 004e 5a3d 264b af3b 5b99 9dbd a449 d4bc
00000240: 15c2 7c3d 3db6 acbd 9463 aebd 8186 e0bd
00000250: 665d 92be dc1c 2abe a8fe 10be be27 13be
00000260: 5861 d4bd fee5 8abd cc38 64bc e18d fdbc
00000270: 87b9 1cbe 3bf8 dfbd e153 28be fef7 3fbe
00000280: eed5 23be a628 d0bc 6da8 89bd d4c1 8e3c
00000290: f270 a6bc af51 f1bc 3545 9b3d c5ee 7fbd
000002a0: 40c4 6abd 0a34 913d 20c1 373d bd52 d53d
000002b0: d7bd 53bb 35a2 bc3c fdbe 8abc 9458 87be
000002c0: b2e0 dbbe b850 9ebe 2a14 19be f83b 89bd
000002d0: d7fb 7fbd e89a 733c 0126 0ebd 2f23 18bd
000002e0: a236 013e 5aa7 9b3d 3970 c5bc ac6c 06be
000002f0: c98a f4bd 32f4 d9bd d730 21bc a635 92bc
00000300: d839 59bd faae 6a3d 2e08 b13c 46e1 373c
00000310: 55a1 65bd fd0f 7e3d 6f97 0f3d e3c8 3c3b
00000320: 675c 243b d679 063d 97ca c4bd 007f b3be
00000330: 5f9d efbe ed0a 9cbe a88f 14be 5dde 203e
00000340: b039 45bd 3a8e 75bc 0dfa e83d 991e 253d
00000350: 2ab5 df3c 53ee 873c 9724 263d 43d6 e6bd
00000360: cc86 34be 63c1 0bbe dfe9 b8bd 125c 0c3d
00000370: 559c 2b3d 4166 2c3c 2f87 a0bd 3828 3abc
00000380: 08f2 083d 9b2b 5d3a 9c4a 0c3c 71c9 93bc
00000390: 59be 8e3c a235 1dbd c6fa 8abe 7dd7 c8be
000003a0: 1660 e3be 5837 bdbe be1b adbd 7028 503e
000003b0: 86ab c1bc ae7c 323c 3f4a 933b 4aaa 42be
000003c0: f61b 28bd f627 07bd f495 ec3c d22d 8fbd
000003d0: 2197 0dbe f4ab 14be 22a9 92be 6502 c6bd
000003e0: 0c05 4c3d aa70 43bd 8372 0e3d f805 7e3d
000003f0: ed1d 29bd 268f cbbc aea3 ce3c b14b b93d

net.net.0.bias f4 [100]
-0.18006663 -0.0918511 -0.12943271 -0.09834185 0.21739848 -0.15510577 0.31825703 0.53537095
0.2667229 0.44256812 0.4953079 -0.31403178 -0.1844425 -0.45092943 -0.029242225 -0.32513708
0.22542213 -0.38719535 -0.2667548 -0.26421857 -0.6105428 0.6233051 -0.46673092 -0.18073756
0.022950597 -0.30895993 -0.019505177 -0.11807807 -0.25353757 0.56761616 0.121407904 -0.11862037
-0.20746537 0.062699474 -0.0086228335 -0.009020785 -0.33245394 -0.3984094 0.2898869 0.57977
0.07610173 -0.16942814 -0.11209101 -0.27342921 -0.19690932 0.06241028 0.51075035 -0.33961073
-0.35116893 -0.20612028 -0.07550529 -0.78737146 0.33133832 -0.0449656 -0.1812035 -0.29420197
-0.30139053 -0.15461923 -0.24806646 0.21906371 -0.0465845 0.09610782 -0.0713606 0.5167376
-0.29092443 -0.19704226 -0.3111044 -0.326944 -0.5581094 0.22343192 -0.2677793 -0.20563486
-0.084531724 -0.091938294 0.17293766 -1.1176138 -0.1843724 -0.28155136 -0.76575494 -0.09668844
-0.6916899 -0.042174265 0.17880137 0.057875544 0.09561286 0.11999509 0.19692394 0.24834684
-0.24628274 0.3576659 -0.74663204 -0.74743724 -0.16566136 -0.11960629 0.49320304 -0.22175393
-0.34573328 -0.086671814 -0.11283562 -0.23120487
00000000: 6363 38be 6e1c bcbd 028a 04be 7467 c9bd
00000010: b59d 5e3e 0cd4 1ebe 96f2 a23e 120e 093f
00000020: e78f 883e 4a98 e23e ff98 fd3e c6c8 a0be
00000030: 7fde 3cbe 39e0 e6be 648d efbc 5e78 a6be
00000040: 0fd5 663e 783e c6be 1694 88be a847 87be
00000050: 884c 1cbf ec90 1f3f 5bf7 eebe 4413 39be
00000060: e402 bc3c ff2f 9ebe 52c9 9fbc ead2 f1bd
00000070: adcf 81be 4b4f 113f b5a4 f83d 3def f2bd
00000080: cd71 54be 9568 803d c946 0dbc eacb 13bc
00000090: 6737 aabe 51fc cbbe 0e6c 943e cf6b 143f
000000a0: 39db 9b3d 927e 2dbe f98f e5bd eafe 8bbe
000000b0: 99a2 49be eca1 7f3d 89c0 023f 75e1 adbe
000000c0: 6acc b3be 3211 53be 84a2 9abd 2d91 49bf
000000d0: 2da5 a93e d92d 38bd 698d 39be a4a1 96be
000000e0: dc4f 9abe 8154 1ebe 2205 7ebe 3d52 603e
000000f0: 64cf 3ebd 2dd4 c43d 8225 92bd ea48 043f
00000100: 0cf4 94be 72c5 49be 1349 9fbe 3465 a7be
00000110: 42e0 0ebf 56cb 643e 5e1a 89be f291 52be
00000120: f81e adbd 254a bcbd 9216 313e f80d 8fbf
00000130: 1ecc 3cbe 8027 90be 8408 44bf 9704 c6bd
00000140: 9712 31bf ecbe 2cbd b517 373e e80e 6d3d
00000150: add0 c33d fcbf f53d 6ea6 493e a24e 7e3e
00000160: 8b31 7cbe fc1f b73e 4723 3fbf 0c58 3fbf
00000170: 22a3 29be 24f4 f4bd 1c85 fc3e 7613 63be
00000180: f403 b1be fe80 b1bd 5d16 e7bd f8c0 6cbe

net.net.2.weight f4 [100, 100]
0.11333811 -0.033243727 -0.19276674 0.0035238108 0.33761916 -0.23309545 -0.1710926 0.18440814
-0.16120824 0.13401097 0.10736155 -0.1654226 -0.117540665 -0.06264137 -0.43979487 0.18383537
-0.410053 -0.22191167 0.29366717 -0.06502572 0.099564366 -0.010286818 -0.18561298 -0.09084265
-0.15604773 -0.15134808 -0.05830025 0.4030946 0.3319379 -0.14855528 -0.48864394 -0.01008164
-0.2997965 -0.19345249 -0.1364017 -0.10914104 -0.15794314 0.104603164 -0.30776897 -0.06612953
-0.09490117 -0.16419335 0.015402681 -0.16706643 0.14153244 -0.28721777 0.09669327 0.124628834
-0.18199286 0.032403022 -0.083575174 -0.53021526 -0.15160318 -0.087459795 -0.3472634 -0.20993021
-0.12990493 -0.2321366 -0.22957394 -0.5744748 -0.021525538 -0.7296604 -0.0768375 -0.22309409
-0.18599188 -0.0060718916 -0.67436314 0.056970436 -0.16788366 -0.40920398 -0.06496941 -0.06320227
-0.2494435 -0.020156132 -0.22768453 -0.22118986 -0.28340992 -0.18908568 -0.273957 0.06346427
-0.44255042 -0.16726384 0.45990118 -0.064717725 0.040870253 0.071961835 -0.20063707 -0.25830156
-0.23851185 -0.07654038 -0.2485791 0.049543098 -0.16518807 0.087739386 -0.038520575 -0.59332854
-0.07005213 0.15911472 -0.0635981 -0.66757965 0.24094413 -0.09388801 -0.14213595 -0.62710434
0.28638762 -0.3060195 0.28331494 -0.49432376 -0.1032587 0.082026064 -0.3220315 -0.06166394
0.17065401 -0.106187075 -0.088642634 0.035173774 -0.26792854 -0.58272123 -0.4126519 -0.5953805
-0.20419843 0.14197816 -0.44159 -0.27059165 -0.07949568 0.009940869 -0.16895193 0.16930303
-0.06541337 -0.10139497 -0.016282441 -0.2389602 0.52578133 0.22779131 -0.19124173 0.017099319
-0.10409146 -0.2770884 -0.089236654 -0.26334623 -0.50392425 0.03649948 0.16062318 -0.21414383
0.19131273 0.059243422 -0.16056262 -0.55560315 -0.37888262 -0.04699205 -0.13947749 -0.722298
0.33195654 -0.044039562 -0.08094754 -0.33854207 -0.08832151 0.07214295 -0.25424474 0.08311387
-0.3475087 -0.05574023 -0.031848487 -0.2086112 -0.4609906 -0.24926478 -0.42860493 -0.37317738
-0.040673226 -0.6578256 0.1224201 -0.15251951 -0.08365055 -0.36736673 -0.62330246 -0.34138623
-0.2061077 -0.012955048 -0.80160326 0.088431664 -0.36016762 0.2427396 0.029413778 -0.01696051
-0.12973055 0.268796 -0.08678613 -0.25196132 0.3563374 0.41851646 -0.19872768 -0.08708401
-0.08348803 -0.5959811 -0.36595413 -0.1657069 -0.1113987 -0.5225469 -0.32497668 0.10665454
-0.21376115 0.030999897 -0.1691359 0.092295036 -0.24584407 0.08838509 0.12344832 0.27158365
0.082547836 -0.1073687 0.07007331 -0.0045036017 0.14407444 -0.0070072804 0.023114294 -0.17314246
-0.2731312 -0.11639902 -0.22263019 -0.06080211 -0.1445812 -0.028243741 0.09988911 0.007541241
0.2401156 0.17284095 0.013265354 -0.08551631 0.1273194 0.06859704 -0.033480763 0.14364865
0.05595961 -0.14329721 0.124164395 -0.052987818 0.17500073 -0.1203967 -0.06916256 0.108960874
0.25180435 0.10086866 0.02180108 -0.1974398 -0.037043992 0.044672187 0.5671786 -0.04672476
-0.12134268 -0.13023108 -0.119333684 -0.2331218 0.009916199 -0.17373008 0.088171676 -0.18628192
00000000: d01d e83d 932a 08bd a564 45be bcef 663b
00000010: 6bdc ac3e 93b0 6ebe e632 2fbe 7dd5 3c3e
00000020: c613 25be 2c3a 093e 5fe0 db3d 8b64 29be
00000030: 29b9 f0bd 1e4a 80bd cb2c e1be 573f 3c3e
00000040: 78f2 d1be d03c 63be 8b5b 963e 342c 85bd
00000050: 67e8 cb3d 0b8a 28bc 5411 3ebe b60b babd
00000060: faca 1fbe fefa 1abe 3ecc 6ebd 6a62 ce3e
00000070: c4f3 a93e e01e 18be 8a2f fabe 772d 25bc
00000080: ed7e 99be 6918 46be e3ac 0bbe 5685 dfbd
00000090: d9bb 21be 2f3a d63d e593 9dbe eb6e 87bd
000000a0: 8b5b c2bd 4d22 28be 875b 7c3c 7613 2bbe
000000b0: e1ed 103e 350e 93be 1f07 c63d 673d ff3d
000000c0: 565c 3abe 08b9 043d 7629 abbd 30bc 07bf
000000d0: dd3d 1bbe 1f1e b3bd 82cc b1be f2f7 56be
000000e0: cc05 05be 38b5 6dbe 6e15 6bbe c810 13bf
000000f0: 5356 b0bc 06cb 3abf fb5c 9dbd c772 64be
00000100: a874 3ebe b8f6 c6bb 10a3 2cbf d559 693d
00000110: b2e9 2bbe 2f83 d1be af0e 85bd 3170 81bd
00000120: 1e6e 7fbe 791e a5bc 2226 69be 987f 62be
00000130: 1b1b 91be ad9f 41be 1844 8cbe 8ef9 813d
00000140: f895 e2be 3647 2bbe 2b78 eb3e ba8a 84bd
00000150: 9167 273d ba60 933d ce73 4dbe 1a40 84be
00000160: 733c 74be 34c1 9cbd 858b 7ebe b4ed 4a3d
00000170: 1027 29be b5b0 b33d c0c7 1dbd 61e4 17bf
00000180: 7e77 8fbd f8ee 223e b83f 82bd 80e6 2abf
00000190: 0fba 763e 5b48 c0bd 168c 11be e989 20bf
000001a0: 66a1 923e 97ae 9cbe a80e 913e 0118 fdbe
000001b0: 4c79 d3bd 48fd a73d 50e1 a4be 5493 7cbd
000001c0: edbf 2e3e 9c78 d9bd 458a b5bd 6012 103d
000001d0: ee2d 89be 382d 15bf 1c47 d3be db6a 18bf
000001e0: 6519 51be b962 113e 1618 e2be fd8a 8abe
000001f0: a2ce a2bd 07df 223c bc01 2dbe c65d 2d3e
00000200: 72f7 85bd 2ba8 cfbd c162 85bc fcb1 74be
00000210: 9b99 063f 2042 693e dfd4 43be df13 8c3c
00000220: e72d d5bd 88de 8dbe b5c1 b6bd 51d5 86be
00000230: 2e01 01bf 7b80 153d 677a 243e 8548 5bbe
00000240: 7ce7 433e 3ba9 723d 876a 24be 023c 0ebf
00000250: e7fc c1be bc7a 40bd 30d3 0ebe 86e8 38bf
00000260: 35f6 a93e d462 34bd d3c7 a5bd 6355 adbe
00000270: e8e1 b4bd afbf 933d 5e2c 82be 9b37 aa3d
00000280: a9ec b1be de4f 64bd 8f73 02bd 2d9e 55be
00000290: f606 ecbe 443f 7fbe 1b72 dbbe 1b11 bfbe
000002a0: f898 26bd 4267 28bf 64b7 fa3d 132e 1cbe
000002b0: fb50 abbd 7e17 bcbe c090 1fbf 2dca aebe
000002c0: e60d 53be 6941 54bc df35 4dbf a91b b53d
000002d0: e467 b8be bb90 783e 2af5 f03c c4f0 8abc
000002e0: 16d8 04be a19f 893e edbc b1bd 1301 81be
000002f0: db71 b63e ca47 d63e 457f 4bbe 1a59 b2bd
00000300: c6fb aabd 3892 18bf 575e bbbe 12af 29be
00000310: 0025 e4bd a2c5 05bf 5863 a6be b26d da3d
00000320: 34e4 5abe 7ff3 fd3c f631 2dbe 2e05 bd3d
00000330: 8cbe 7bbe 3e03 b53d 79d2 fc3d 030d 8b3e
00000340: d70e a93d 1fe4 dbbd 9882 8f3d f392 93bb
00000350: 4088 133e 549d e5bb 305a bd3c 424c 31be
00000360: dad7 8bbe 9c62 eebd 2bf9 63be a20b 79bd
00000370: 180d 14be 6b5f e7bc a992 cc3d 841c f73b
00000380: dde0 753e 38fd 303e ed56 593c 2d23 afbd
00000390: 0460 023e 9b7c 8c3d 2023 09bd a218 133e
000003a0: e735 653d 81bc 12be e749 fe3d c109 59bd
000003b0: 6433 333e 8c92 f6bd 1aa5 8dbd e126 df3d
000003c0: 80ec 803e 3a94 ce3d 2e98 b23c a92d 4abe
000003d0: 71bb 17bd 2ffa 363d 9e32 113f 7662 3fbd
000003e0: 8382 f8bd 4c5b 05be 3865 f4bd 7bb7 6ebe
000003f0: 8e77 223c 4ce6 31be 5a93 b43d b0c0 3ebe

net.net.2.bias f4 [100]
0.14520408 -0.22436409 -0.48560056 -0.62507844 -1.0150297 -0.43057933 -0.3475255 -1.3181242
-0.23232794 -0.4424434 -0.100320466 -0.312293 -0.17468697 -0.25374433 -0.62142336 -0.3308855
0.3645962 -0.7966277 -0.5301831 -0.3960784 -0.8843082 -0.27853858 -0.18271948 -0.45034176
0.07873574 0.08147587 -1.2590111 -0.030607956 -0.3965472 -0.3088239 -0.11665244 -0.3863919
0.06504749 0.008557237 -0.09608125 0.28690428 -0.63290685 -0.54662657 -0.03018409 -0.7037989
-0.091478385 0.3704525 -0.29295355 0.38937014 -0.78626245 0.021615399 -0.7362617 0.24097891
0.27115646 -0.69578004 -0.5029092 0.079489574 -0.52920985 -0.29268542 -0.36857113 -0.18604651
-0.15637861 -0.3351211 0.101976015 -0.76038176 -0.6800279 -0.17676118 -0.04377685 0.23120382
-0.34042895 -0.067711495 -0.30636045 -0.23040096 -0.5662404 -0.35123944 -0.18251498 -0.3880271
0.79577017 0.639943 -0.6407017 -0.46267045 -0.22436753 -0.3508649 -0.51612645 -0.3832092
-0.31451416 0.5791536 -0.30756807 0.29371017 0.2271348 -0.47428164 -0.4886004 -0.6104274
-0.225822 -0.780131 -0.21812055 -0.53588104 -0.5558993 0.09463792 0.6627361 -0.2861751
-0.35514867 -0.5061916 0.33116677 -0.443542
00000000: 61b0 143e b3bf 65be a3a0 f8be 2405 20bf
00000010: 7eec 81bf e574 dcbe ddee b1be 4bb8 a8bf
00000020: 60e7 6dbe f187 e2be d174 cdbd dee4 9fbe
00000030: 24e1 32be c7ea 81be 9a15 1fbf d369 a9be
00000040: 5aac ba3e cbef 4bbf 14ba 07bf caca cabe
00000050: 0662 62bf 9c9c 8ebe d11a 3bbe 3293 e6be
00000060: 3440 a13d d2dc a63d 4727 a1bf 89bd fabc
00000070: 3c08 cbbe 2b1e 9ebe 79e7 eebd 29d5 c5be
00000080: 9e37 853d a733 0c3c 3fc6 c4bd 1ee5 923e
00000090: 2f06 22bf b8ef 0bbf a044 f7bc 2a2c 34bf
000000a0: 0559 bbbd f3ab bd3e 02fe 95be 865b c73e
000000b0: 7f48 49bf c712 b13c a67b 3cbf 2dc3 763e
000000c0: 05d5 8a3e a41e 32bf a8be 00bf 6ecb a23d
000000d0: 4c7a 07bf ddda 95be 5bb5 bcbe fa82 3ebe
000000e0: b721 20be fe94 abbe cdd8 d03d 61a8 42bf
000000f0: 4f16 2ebf e200 35be 5b4f 33bd b2c0 6c3e
00000100: b44c aebe 53ac 8abd 47db 9cbe 3bee 6bbe
00000110: 21f5 10bf a8d5 b3be 35e5 3abe 7dab c6be
00000120: 98b7 4b3f 4ed3 233f 0705 24bf 24e3 ecbe
00000130: 9ac0 65be 90a4 b3be dd20 04bf ff33 c4be
00000140: 0008 a1be 6943 143f 9079 9dbe 2e61 963e
00000150: 0696 683e 0bd5 f2be d529 fabe f844 1cbf
00000160: e23d 67be aab6 47bf fe5a 5fbe 802f 09bf
00000170: 6b4f 0ebf 87d1 c13d 13a9 293f 8b85 92be
00000180: 0cd6 b5be c695 01bf b18e a93e f017 e3be

net.net.4.weight f4 [100, 100]
-0.20709893 -0.21664284 0.055190768 0.011322124 -0.3214066 0.046816673 -0.46740693 0.39605045
-0.27169985 -0.27149484 0.14988904 -0.24956505 -0.18856148 0.344906 -0.07932502 -0.19578853
-0.07860086 0.04601822 -0.09890619 -0.07806637 -0.16326596 -0.119353145 -0.18365745 0.042217147
-0.056375332 -0.12499817 -0.07916426 0.03840807 0.52043974 -0.42176035 -0.31615546 -0.1996414
-0.31788006 -0.24030633 -0.1375307 -0.047693837 -0.044809774 0.15902773 0.043518513 0.13175419
-0.10070647 0.027494192 -0.27808854 -0.18787678 -0.0033753566 -0.19214043 -0.14732511 -0.13377903
-0.3836295 -0.041028757 -0.217258 0.06026075 0.27294004 -0.2798523 0.23150304 -0.22874643
-0.16656342 0.13313812 -0.25753373 0.06124317 0.2664246 -0.3375426 -0.06752472 -0.33415017
-0.030040469 -0.30959478 -0.094240755 -0.14197586 0.05301228 0.012932915 -0.30351344 -0.1551742
-0.1474402 -0.15110318 -0.13539311 -0.26071432 -0.07741701 0.26295924 -0.06568587 -0.18314254
-0.15662828 -0.28759933 -0.08834804 0.13346194 -0.26868752 0.05183272 -0.12671402 -0.006468752
0.043263476 -0.17358688 -0.055939417 -0.21468078 -0.5917009 0.0777778 -0.041518833 0.23258199
0.092081286 0.09216971 -0.1124618 0.1979771 -0.17721763 -0.065273516 0.012584374 -0.2182924
0.07178948 -0.24446557 0.18455443 0.112056375 -0.26881653 -0.056510255 -0.073783234 0.3040053
-0.113581136 -0.10869262 -0.1766666 -0.27644497 -0.20705175 -0.16613941 0.28996232 0.100240126
-0.12718241 -0.28405255 0.20495857 -0.09379803 0.021451537 -0.16984904 -0.11429142 -0.2044187
-0.1971868 0.07116535 -0.12309355 0.05463657 -0.20400105 -0.15386097 -0.2228911 -0.10750142
-0.15207158 -0.072619475 0.009561051 0.16612187 -0.18388216 -0.379448 0.31377557 -0.014675284
0.17540246 0.07367884 -0.16255254 -0.32111397 -0.06968749 -0.2740156 -0.18595536 -0.15319517
-0.10285206 0.034748636 -0.18726346 -0.05604568 0.058150817 0.058625583 -0.015067235 -0.23594455
0.03607202 -0.105450176 -0.034896497 -0.020742066 -0.02182185 0.016371308 -0.12990226 -0.015672596
0.0047517675 0.20904465 -0.2642177 0.025596017 0.21622062 0.034372177 -0.0008980009 -0.19117257
0.13579813 0.04598362 -0.08645546 -0.17126967 -0.10950565 -0.05598038 0.22767556 -0.054877006
-0.18949452 -0.049010128 0.20662507 0.124199495 0.016372707 -0.28532705 -0.25932482 0.3900159
0.5181353 -0.03757189 -0.12534496 0.122011006 -0.032189183 -0.014129079 0.064293385 -0.031508967
-0.004386071 -0.18819377 -0.06635234 0.033076722 -0.07919228 -0.2321342 -0.17105488 -0.17901687
-0.04724136 0.29495054 0.1628035 -0.11739677 0.12289809 -0.018624332 -0.28657138 -0.33969146
-0.26825422 -0.05051748 0.021375565 -0.113579 -0.2520208 -0.2337612 -0.063987315 0.14548938
-0.21495233 -0.1911774 -0.11187232 -0.22161134 -0.011974781 0.049544103 0.07802064 0.05199181
-0.2139222 0.000116868614 -0.056788884 -0.14267546 0.036979977 0.1606827 0.29414415 0.17066781
0.054742146 -0.08653346 0.20997111 -0.03334562 -0.04136146 -0.10563748 0.05957664 -0.06711823
0.12135118 -0.3380296 0.30280918 -0.16294043 -0.083531156 0.0027638746 -0.05325454 -0.1282684
00000000: be11 54be 9fd7 5dbe b70f 623d 6e80 393c
00000010: 688f a4be d7c2 3f3d f64f efbe 20c7 ca3e
00000020: 3e1c 8bbe 5f01 8bbe 837c 193e fb8d 7fbe
00000030: 4316 41be 8597 b03e 2875 a2bd ca7c 48be
00000040: 7df9 a0bd 9a7d 3c3d 548f cabd 43e1 9fbd
00000050: 312f 27be 6c6f f4bd b310 3cbe e3eb 2c3d
00000060: d2e9 66bd 0aff ffbd df20 a2bd c851 1d3d
00000070: 8a3b 053f f9f0 d7be 21df a1be cc6e 4cbe
00000080: 2dc1 a2be dd12 76be d9d4 0cbe 9d5a 43bd
00000090: 748a 37bd 2ad8 223e 7840 323d 92ea 063e
000000a0: 323f cebd 803b e13c 9f61 8ebe c562 40be
000000b0: 1635 5dbb 76c0 44be 65dc 16be 5ffd 08be
000000c0: 166b c4be c50d 28bd e278 5ebe fad3 763d
000000d0: ccbe 8b3e cd48 8fbe 220f 6d3e 813c 6abe
000000e0: 9a8f 2abe 5c55 083e 76db 83be 1eda 7a3d
000000f0: ce68 883e 62d2 acbe 674a 8abd bb15 abbe
00000100: 6e17 f6bc 3583 9ebe 4c01 c1bd 1f62 11be
00000110: 6823 593d 94e4 533c 1d66 9bbe fce5 1ebe
00000120: 90fa 16be cbba 1abe 7ea4 0abe 597c 85be
00000130: cf8c 9ebd 98a2 863e 5086 86bd b889 3bbe
00000140: 2a63 20be 3840 93be d1ef b4bd 3faa 083e
00000150: 6991 89be 8c4e 543d 52c1 01be d3f7 d3bb
00000160: 0b35 313d c2c0 31be bb20 65bd 47d5 5bbe
00000170: b679 17bf f849 9f3d a70f 2abd f929 6e3e
00000180: 1d95 bc3d 79c3 bc3d 5f52 e6bd 82ba 4a3e
00000190: 8a78 35be 1fae 85bd b12e 4e3c 0b88 5fbe
000001a0: 5d06 933d 2f55 7abe d6fb 3c3e d07d e53d
000001b0: 52a2 89be 4c77 67bd aa1b 97bd 95a6 9b3e
000001c0: 3a9d e8bd 3d9a debd 17e8 34be 328a 8dbe
000001d0: 6005 54be 7320 2abe f175 943e b24a cd3d
000001e0: 1b3c 02be 566f 91be a9e0 513e 2e19 c0bd
000001f0: 22bb af3c e8ec 2dbe 9f11 eabd 2353 51be
00000200: 56eb 49be 24bf 913d 7918 fcbd 99ca 5f3d
00000210: a7e5 50be bb8d 1dbe 913d 64be b429 dcbd
00000220: a7b8 1bbe 85b9 94bd f4a5 1c3c da1b 2a3e
00000230: 9b4b 3cbe 0247 c2be 31a7 a03e 9a70 70bc
00000240: b49c 333e efe4 963d 2c74 26be 0d69 a4be
00000250: 51b8 8ebd c64b 8cbe 156b 3ebe 32df 1cbe
00000260: 1aa4 d2bd 9654 0e3d fec1 3fbe 2890 65bd
00000270: 8d2f 6e3d 6121 703d 90dc 76bc 739b 71be
00000280: 41c0 133d 43f6 d7bd a1ef 0ebd 44eb a9bc
00000290: bdc3 b2bc 1f1d 863c 1905 05be d163 80bc
000002a0: b7b4 9b3b cd0f 563e 8b47 87be bdae d13c
000002b0: f068 5d3e d7c9 0c3d d267 6bba bec2 43be
000002c0: aa0e 0b3e 5259 3c3d 8f0f b1bd 5161 2fbe
000002d0: 8044 e0bd af4b 65bd c823 693e b6c6 60bd
000002e0: da0a 42be d8be 48bd 8695 533e 4e5c fe3d
000002f0: 0e20 863c 6316 92be 39c6 84be 2ab0 c73e
00000300: 84a4 043f fbe4 19bd 6e5a 00be e8e0 f93d
00000310: ced8 03bd a77d 67bc 40ac 833d 8c0f 01bd
00000320: 08b9 8fbb deb5 40be bce3 87bd 757b 073d
00000330: 902f a2bd 96b4 6dbe 0329 2fbe 3350 37be
00000340: 2880 41bd c203 973e f6b5 263e b86d f0bd
00000350: feb1 fb3d 0e92 98bc 7cb9 92be 0aec adbe
00000360: 9e58 89be 6beb 4ebd cf1b af3c 1b9c e8bd
00000370: df08 81be 195f 6fbe c80b 83bd 2bfb 143e
00000380: 771c 5cbe 02c4 43be 511d e5bd 15ee 62be
00000390: df31 44bc c2ee 4a3d 49c9 9f3d 5df5 543d
000003a0: 6c0e 5bbe 5c17 f538 769b 68bd 8419 12be
000003b0: 5178 173d 018a 243e 109a 963e 8bc3 2e3e
000003c0: 4d39 603d 7438 b1bd ab02 573e 6b95 08bd
000003d0: a26a 29bd 7758 d8bd a306 743d 4875 89bd
000003e0: f886 f83d 3712 adbe ce09 9b3e dbd9 26be
000003f0: 6212 abbd 1f22 353b 6f21 5abd cb58 03be

net.net.4.bias f4 [100]
-0.48504376 -0.28632718 -0.47344935 -0.2012535 0.35839528 -0.40884194 -0.03633605 -0.24786825
0.18588072 -0.042057734 0.07483324 -0.13696449 -0.034226183 -0.105064794 -0.37219366 -0.33760008
0.11423474 -0.231807 -0.2235609 0.021268955 -0.08678143 0.09123237 -0.46543738 -0.08633959
-0.10237755 -0.27240703 -0.20581338 0.44977263 0.006402284 -0.20269932 0.07830142 -0.15530844
-0.1573979 -0.20087087 -0.21389498 -0.101233505 -0.35011208 0.05889262 -0.3717048 -0.42303047
-0.44897833 0.065593615 -0.0051909224 -0.050196897 0.2859503 -0.14269777 -0.2405014 -0.5892723
-0.067835115 -0.14557564 -0.16951032 -0.39167914 -0.11257364 -0.24736837 -0.04206703 -0.108133316
-0.13062258 -0.028175198 -0.09113274 -0.26336172 -0.28873914 0.5683405 -0.24150035 -0.0986692
-0.27518094 -0.19409245 -0.1512985 -0.27616113 -0.32151932 -0.5012093 -0.21920575 -0.0010887583
0.19507138 -0.21816133 -0.50083005 0.1912825 0.21150368 -0.33653077 0.06503672 0.06404969
0.027247522 -0.04913475 0.006425511 0.0406928 -0.023475336 -0.01573254 0.43775058 -0.55245227
0.08153999 -0.30544898 -0.4370026 -0.097570464 -0.5321886 -0.10998283 -0.047431856 0.06433988
-0.09278793 -0.43383312 -0.38573518 -0.29386574
00000000: a857 f8be 7a99 92be f467 f2be 6615 4ebe
00000010: 967f b73e bb53 d1be 1cd5 14bd 2dd1 7dbe
00000020: 8457 3e3e bb44 2cbd 2b42 993d 6b40 0cbe
00000030: c130 0cbd 362c d7bd 2b90 bebe ebd9 acbe
00000040: e7f3 e93d d05e 6dbe 26ed 64be 3b3c ae3c
00000050: 76ba b1bd 09d8 ba3d cf4d eebe d0d2 b0bd
00000060: 52ab d1bd ef78 8bbe bec0 52be 9948 e63e
00000070: 40ca d13b 6990 4fbe 7f5c a03d 2d09 1fbe
00000080: ea2c 21be 18b1 4dbe 4907 5bbe 8353 cfbd
00000090: e441 b3be 6339 713d 1750 bebe 7397 d8be
000000a0: 7de0 e5be f255 863d 9d18 aabb 439b 4dbd
000000b0: 1468 923e 5d1f 12be 0046 76be 8dda 16bf
000000c0: 23ed 8abd c811 15be 1d94 2dbe 2b8a c8be
000000d0: 028d e6bd 224e 7dbe 7a4e 2cbd 0075 ddbd
000000e0: edc1 05be accf e6bc cda3 babd 59d7 86be
000000f0: 9ed5 93be c37e 113f de4b 77be 1413 cabd
00000100: 84e4 8cbe 2cc0 46be feed 1abe fe64 8dbe
00000110: 2e9e a4be 414f 00bf 7977 60be abb4 8eba
00000120: cbc0 473e af65 5fbe 6636 00bf 8fdf 433e
00000130: 6c94 583e c34d acbe f931 853d 7c2c 833d
00000140: 3236 df3c 8541 49bd 188d d23b 7ead 263d
00000150: 594f c0bc 87e1 80bc d820 e03e 836d 0dbf
00000160: 70fe a63d cf63 9cbe cebe dfbe 06d3 c7bd
00000170: 833d 08bf ae3e e1bd e847 42bd a1c4 833d
00000180: 9907 bebd 601f debe 157f c5be 9275 96be

net.net.6.weight f4 [100, 100]
-0.30451995 -0.19649409 -0.13332723 -0.010998267 0.07128131 -0.011928555 -0.28247058 -0.27523133
-0.085588515 -0.19217743 -0.09992227 -0.0457014 -0.13738665 -0.13555315 0.2223 -0.227543
-0.20389785 -0.17859226 -0.08520997 -0.012480979 0.082265094 -0.10364562 0.02521652 -0.0225176
-0.0074279383 0.056350198 -0.4713071 -0.38235587 0.056614075 -0.16045883 -0.10297391 0.0788163
-0.36233044 -0.34067765 -0.3972546 0.1575714 -0.1850742 -0.07620115 -0.23281461 -0.59176326
-0.053431958 -0.16541584 -0.06580025 -0.02565975 -0.1815854 -0.21653594 -0.49528173 -0.029538972
-0.03988013 -0.059856743 0.025062773 -0.26126269 -0.15933804 -0.0066286693 -0.14839911 -0.21466255
-0.2671802 -0.05858618 -0.34203294 -0.19508459 -0.27729195 -0.2726578 -0.2898175 0.051972598
-0.37073183 -0.0927522 -0.26040107 -0.33483496 0.0057922164 -0.013097748 0.055569034 -0.24752578
-0.02992932 0.016182503 -0.043602176 -0.12241374 -0.18173091 -0.10778162 -0.0402044 -0.24504052
-0.15571228 -0.25107616 -0.27581155 -0.12893964 -0.14396021 -0.18754998 -0.23184748 -0.41148803
0.30136722 -0.017268544 -0.20664866 -0.088850245 -0.35362065 -0.12957852 -0.13458185 -0.2648696
-0.14703663 -0.17688993 -0.00067866786 -0.10228945 -0.12176914 -0.100557506 -0.033072956 -0.058943074
-0.10777218 -0.17804262 -0.007776941 -0.023179153 -0.032996673 -0.13923053 -0.07056037 -0.10867722
0.15554237 0.020100176 -0.15494509 -0.033198573 -0.2194242 -0.10096906 0.16114199 0.10496584
0.09406844 -0.06556393 -0.21967474 -0.112270236 -0.10113658 0.10343243 -0.32987788 -0.25728944
0.124259725 -0.16993675 -0.2443186 -0.14621775 -0.3579229 -0.16198704 0.022333048 -0.030023271
0.021409167 -0.13540749 -0.1864709 -0.1970155 -0.034584783 0.08395124 -0.06660277 -0.056664605
-0.06539216 -0.15558168 -0.2686388 0.03033244 -0.22448868 -0.12340497 -0.108981274 -0.09531823
0.08927621 -0.20973103 -0.17442018 0.093127735 0.09103843 0.09406156 -0.054367065 -0.17362082
-0.12963705 0.051059972 -0.06650087 0.124880716 -0.033344477 -0.058973122 0.030817654 -0.32969502
0.090662524 -0.059840687 0.089321956 -0.0271663 -0.19777429 -0.06950799 -0.2102765 0.13511111
0.17368071 -0.22105837 0.06141648 -0.032118946 -0.11304027 -0.017937558 -0.12006078 -0.065751694
-0.16244045 -0.013595982 0.15756764 0.048813075 -0.050971556 -0.2892962 0.18372032 0.0767205
-0.14748406 -0.110245444 -0.18703558 -0.08619404 -0.17231266 -0.18390284 -0.036528166 0.023163041
0.06600992 -0.33256915 0.004701636 0.01278058 -0.024208061 -0.29062027 -0.13737744 0.037719782
-0.13067652 -0.12129793 -0.1810904 -0.0056861113 0.20787992 -0.04872698 0.06768079 -0.026300635
-0.102753974 -0.039227027 -0.08340393 0.03686082 -0.13693355 -0.116751686 -0.2730381 -0.046191588
-0.11954302 -0.1363145 -0.06283631 -0.9642564 0.025356058 -0.23314378 0.09188105 -0.45522317
-0.22620223 -0.09943954 -0.4426239 -0.02161512 0.055784352 -0.069634795 0.07082038 -0.2134323
-0.24247642 -0.043372158 -0.013972725 0.030780079 -0.40259632 -0.09586236 -0.52262986 -0.10063426
-0.048398495 -0.050061814 -0.014264029 -0.07375516 0.091025494 -0.14999464 -0.15196079 0.110795714
00000000: 0aea 9bbe bf35 49be ef86 08be 1332 34bc
00000010: effb 913d fc6f 43bc fc9f 90be 1feb 8cbe
00000020: 0849 afbd 29ca 44be 0ca4 ccbd 6431 3bbd
00000030: 16af 0cbe 72ce 0abe 9ca2 633e 0801 69be
00000040: 99ca 50be e4e0 36be 9182 aebd 057d 4cbc
00000050: 9a7a a83d 2844 d4bd e092 ce3c d476 b8bc
00000060: 1066 f3bb 77cf 663d 2a4f f1be 26c4 c3be
00000070: 29e4 673d 524f 24be fce3 d2bd 716a a13d
00000080: 6083 b9be 4d6d aebe f464 cbbe 665a 213e
00000090: 1784 3dbe 590f 9cbd f466 6ebe cc7d 17bf
000000a0: 78db 5abd c562 29be 48c2 86bd 6534 d2bc
000000b0: 86f1 39be 99bb 5dbe 9195 fdbe b7fb f1bc
000000c0: 5959 23bd 582c 75bd 7250 cd3c 39c4 85be
000000d0: 8329 23be 4f35 d9bb f0f5 17be 80d0 5bbe
000000e0: d8cb 88be 10f8 6fbd f11e afbe 41c4 47be
000000f0: 36f9 8dbe ce99 8bbe f662 94be 38e1 543d
00000100: 90d0 bdbe def4 bdbd 4a53 85be 7d6f abbe
00000110: a2cc bd3b f097 56bc 5b9c 633d 6677 7dbe
00000120: 552e f5bc 2b91 843c 3298 32bd 0eb4 fabd
00000130: ab17 3abe 9cbc dcbd 5ead 24bd e7eb 7abe
00000140: 0a73 1fbe 0e8d 80be 2c37 8dbe c108 04be
00000150: 4e6a 13be 1a0d 40be 6d69 6dbe 8fae d2be
00000160: ce4c 9a3e c376 8dbc b59b 53be 1ef7 b5bd
00000170: c40d b5be 3bb0 04be d3cf 09be fd9c 87be
00000180: c590 16be a222 35be a1e8 31ba 227d d1bd
00000190: 1962 f9bd 18f1 cdbd 8277 07bd 4b6e 71bd
000001a0: a9b7 dcbd ce50 36be b6d5 febb 35e2 bdbc
000001b0: 8527 07bd 7392 0ebe f581 90bd 2a92 debd
000001c0: 8046 1f3e 20a9 a43c eda9 1ebe 3afb 07bd
000001d0: bdb0 60be dec8 cebd 6802 253e 55f8 d63d
000001e0: f4a6 c03d 6246 86bd 6af2 60be f0ed e5bd
000001f0: b220 cfbd 62d4 d33d c1e5 a8be 71bb 83be
00000200: e27b fe3d e603 2ebe a82e 7abe 1bba 15be
00000210: ac41 b7be eedf 25be ccf3 b63c 5df3 f5bc
00000220: 4762 af3c 43a8 0abe 3af2 3ebe 6ebe 49be
00000230: c6a8 0dbd a1ee ab3d 0867 88bd 2519 68bd
00000240: 53ec 85bd ce50 1fbe 068b 89be bd7b f83c
00000250: 5ce0 65be bfbb fcbd 9331 dfbd 3436 c3bd
00000260: 72d6 b63d bbc3 56be 349b 32be c1b9 be3d
00000270: 5b72 ba3d 59a3 c03d 00b0 5ebd a8c9 31be
00000280: 93bf 04be 4324 513d 9c31 88bd 76c1 ff3d
00000290: 3894 08bd cd8d 71bd 4e75 fc3c c9cd a8be
000002a0: 46ad b93d 821b 75bd 6eee b63d dc8b debc
000002b0: 5885 4abe 345a 8ebd b952 57be 915a 0a3e
000002c0: 5bd9 313e 205d 62be d98f 7b3d 288f 03bd
000002d0: a881 e7bd c9f1 92bc 6de2 f5bd d3a8 86bd
000002e0: ca56 26be afc1 5ebc 6959 213e 38f0 473d
000002f0: 8dc7 50bd a21e 94be 2e21 3c3e a31f 9d3d
00000300: 1006 17be 5dc8 e1bd 4186 3fbe 8086 b0bd
00000310: bb72 30be 0751 3cbe 8f9e 15bd 6bc0 bd3c
00000320: 3530 873d 8146 aabe 2e10 9a3b a365 513c
00000330: fc4f c6bc 2ecc 94be acac 0cbe 0f80 1a3d
00000340: 11d0 05be 0d6b f8bd c36f 39be 8f52 babb
00000350: 79de 543e f195 47bd 3a9c 8a3d 6e74 d7bc
00000360: ad70 d2bd 85ac 20bd aecf aabd 5ffb 163d
00000370: 4f38 0cbe 821b efbd a6cb 8bbe 6433 3dbd
00000380: f9d2 f4bd 0796 0bbe 53b0 80bd 82d9 76bf
00000390: 82b7 cf3c 3ebd 6ebe 222c bc3d 0313 e9be
000003a0: 8fa1 67be f5a6 cbbd 9a9f e2be 3112 b1bc
000003b0: 227e 643d b09c 8ebd 460a 913d ff8d 5abe
000003c0: bd4b 78be 01a7 31bd dbed 64bc 8126 fc3c
000003d0: 1b21 cebe 7c53 c4bd 12cb 05bf 5619 cebd
000003e0: 803d 46bd 9e0d 4dbd adb3 69bc f20c 97bd
000003f0: 936b ba3d 3298 19be 9c9b 1bbe dde8 e23d

net.net.6.bias f4 [100]
-0.06736979 -0.16323015 -0.03297228 -0.13049947 0.20474805 0.008810941 0.52273804 -0.20548566
-0.105187185 -0.084177636 -0.05436524 0.12285627 0.1880397 -0.061290815 -0.4279651 0.39669454
0.27171367 0.24341135 0.02146293 -0.15732382 0.3246152 -0.115960225 -0.042240053 -0.11939011
0.35715884 -0.12347554 -0.21371241 0.19563185 -0.033871964 -0.15218504 0.36175317 -0.40473753
-0.49457723 -0.21214312 -0.23553596 0.08707116 0.29757524 -0.043832645 -0.2782036 -0.064641066
-0.19405733 -0.03754875 0.3331145 -0.14617178 0.2373747 -0.3252767 -0.15625292 -0.09749427
-0.20221591 0.10054133 -0.12838495 0.3486997 -0.0110582765 0.05292339 0.44214383 0.014159107
-0.12445853 -0.26216024 -0.10464864 -0.0037958897 -0.24689113 0.18338679 -0.24454743 -0.25672606
-0.24040194 -0.30302233 -0.035528466 -0.12669617 -0.070024714 0.32911858 0.028581297 -0.08037706
0.48627084 -0.19331738 -0.26428935 -0.15040605 0.2741594 -0.28025356 -0.14186294 -0.05300136
-0.17613101 0.05104716 -0.009001542 -0.20230792 0.45904893 0.35611457 0.22309665 -0.24005766
0.052459326 -0.10739172 0.06995849 0.0052167135 0.08330344 -0.26949456 0.45922527 0.15479995
-0.16320632 0.08711081 0.53567016 -0.23075032
00000000: 2cf9 89bd ce25 27be f10d 07bd a7a1 05be
00000010: 79a9 513e c45b 103c 29d2 053f d56a 52be
00000020: 616c d7bd 5365 acbd 16ae 5ebd 119c fb3d
00000030: 7b8d 403e 140c 7bbd 3e1e dbbe 8c1b cb3e
00000040: 0e1e 8b3e d340 793e 07d3 af3c 7f19 21be
00000050: f733 a63e 8e7c edbd e803 2dbd cd82 f4bd
00000060: 86dd b63e bee0 fcbd 6dd7 5abe b753 483e
00000070: 54bd 0abd 65d6 1bbe b637 b93e c239 cfbe
00000080: 3a39 fdbe 0c3c 59be 5730 71be 5d52 b23d
00000090: c85b 983e dc89 33bd b470 8ebe 8962 84bd
000000a0: f7b6 46be b8cc 19bd fc8d aa3e 0eae 15be
000000b0: 5a12 733e ab8a a6be c400 20be 13ab c7bd
000000c0: b011 4fbe 9de8 cd3d 5877 03be c488 b23e
000000d0: c62d 35bc 32c6 583d ad60 e23e 99fb 673c
000000e0: 1de4 febd de39 86be 0752 d6bd 76c4 78bb
000000f0: 07d1 7cbe bfc9 3b3e a46a 7abe 9971 83be
00000100: ed2b 76be be25 9bbe 4c86 11bd a4bc 01be
00000110: 1e69 8fbd 3b82 a83e 5323 ea3c ba9c a4bd
00000120: 7ef8 f83e fef4 45be ef50 87be 0b04 1abe
00000130: 9f5e 8c3e 657d 8fbe 8544 11be f417 59bd
00000140: b05b 34be d416 513d 347b 13bc cf29 4fbe
00000150: 7608 eb3e a654 b63e 7373 643e add1 75be
00000160: 97df 563d 31f0 dbbd 6646 8f3d f7f0 aa3b
00000170: fe9a aa3d 31fb 89be 931f eb3e e183 1e3e
00000180: 8f1f 27be 2767 b23d ae21 093f d049 6cbe

net.net.8.weight f4 [10, 100]
-0.06963759 -0.008823317 -0.29311368 -0.100615114 0.15073985 0.51096654 0.23084195 -0.10597494
-0.39088228 0.20776288 -0.16672954 -0.042767406 -0.3203724 0.50569606 -0.09747897 -0.19405018
-0.6363999 -0.19438688 0.26632443 -0.083645426 -0.2586499 -0.2012473 -0.16903158 -0.22366183
-0.2642633 0.05138788 0.07861541 -0.01211243 -0.0580795 -0.24199595 0.39689925 -0.35961515
-0.33233804 0.020775942 -1.3105571 -0.045582306 -0.023935089 0.028071893 -0.14587627 -0.0120903645
0.10329346 0.0027251935 -0.30084205 0.07840441 -0.22059488 0.020030038 0.36672702 -0.36648902
0.15997034 -0.11985895 -0.3261644 0.68790275 -0.13394813 -0.14041401 0.8536483 -0.2794069
0.21885984 0.15748698 1.0049175 -0.3124759 -0.103421405 -0.083837666 0.34332147 -0.1031509
0.113195725 0.4300498 -0.54549974 -0.10066087 0.23609117 0.63649607 -0.21904239 -0.17215069
-0.33006996 -0.0715871 -0.073301405 0.14715213 0.37103528 0.23768269 -0.14766236 0.29392245
-0.16865052 -0.2757107 -0.2252157 -0.056940056 -0.2211773 0.042270027 -0.60854316 -0.20560618
-0.004900725 -0.1883613 -0.2521159 -0.31236047 -0.08179432 0.14496121 -0.19854757 -0.1351056
-0.23675704 -0.23729281 -0.20232528 -0.501018 0.16107441 -0.13055453 -0.32378048 -0.320967
-0.54597217 -0.13666679 -0.5055304 -0.04648608 0.029433208 -0.44448292 -0.023914158 -0.39473093
-0.32073352 -0.6191746 0.13133042 -0.3282161 -0.43622512 -0.37873793 -0.37919816 -0.09754937
-0.37266105 0.21812342 -0.19054396 0.33226895 -0.5888221 -0.47776493 -0.24458352 0.10605602
-0.1725083 -0.13865647 -0.05609031 -0.2031975 0.44668388 -0.17423515 -0.31896102 -0.32373303
-0.036632046 0.24237876 0.10365444 0.10133596 -0.2910897 -0.115656585 -0.49693766 -0.20769158
-0.20074363 0.2140991 0.3484773 -0.2487449 -0.084974006 -0.22163664 -0.43664843 -0.5749201
-0.41642746 -0.24150033 -0.55597013 -0.54921216 -0.38740334 -0.031716775 -0.22779384 1.0211076
-0.1259532 -0.3030985 -0.0059025045 0.11187491 0.152385 -0.6335996 -0.15830594 0.57478386
-0.3298844 -0.8514741 -0.21096267 -0.2662105 -0.097641245 -0.12555492 -0.11429154 -0.15604445
-0.7423543 0.042797215 -0.35120264 -0.26713237 -0.017973583 0.06259791 -0.16001281 -0.11146252
-0.59974885 -0.4840499 -0.122766815 0.068848975 -0.27689034 -0.05694727 -0.39545485 -0.19797276
-0.31352225 -0.2474152 -0.44987538 -0.21499397 -0.36202905 -0.075522654 -0.31615195 -0.0864904
-0.025481697 -0.133294 -0.15762967 0.56600744 -0.18977463 0.21324001 0.42043608 0.14719482
-0.39693224 -0.07407031 0.018996596 -0.22225076 -0.5450502 0.1259738 0.23763674 -0.032973915
-0.29545954 -0.24133112 0.07062617 0.25195295 0.52852756 -0.1841235 0.19095947 0.5187344
0.09939359 0.22523598 -0.05186958 0.06381966 0.05975107 -0.19532922 0.39351356 1.3940424
0.032279544 -0.016714891 0.2057601 0.4120725 0.52639455 -0.3680241 0.3048088 0.15672365
0.40576985 0.58062196 -0.69086987 -0.18577461 0.69186974 -0.572082 -0.0066775186 0.07111813
0.3180951 0.25811088 0.552692 0.2140746 -0.029034693 0.27283165 -0.13395716 0.40145272
00000000: 279e 8ebd ac8f 10bc ff12 96be 4c0f cebd
00000010: 8c5b 1a3e b4ce 023f d561 6c3e 6409 d9bd
00000020: b921 c8be cbbf 543e 26bb 2abe e02c 2fbd
00000030: da07 a4be 4c75 013f 0ea3 c7bd 17b5 46be
00000040: 1beb 22bf 5b0d 47be ad5b 883e 4b4e abbd
00000050: c26d 84be c613 4ebe 9d16 2dbe 9b07 65be
00000060: 854d 87be 197c 523d 1e01 a13d 3773 46bc
00000070: c5e4 6dbd c9cd 77be 6136 cb3e 7a1f b8be
00000080: 3628 aabe 4f32 aa3c 56c0 a7bf 83b4 3abd
00000090: 8513 c4bc 07f7 e53c 9760 15be aa16 46bc
000000a0: 868b d33d 2999 323b f807 9abe 7e92 a03d
000000b0: a0e3 61be 0916 a43c a5c3 bb3e 73a4 bbbe
000000c0: 44cf 233e 9c78 f5bd 05ff a6be 651a 303f
000000d0: b329 09be b1c8 0fbe b288 5a3f 6c0e 8fbe
000000e0: cb1c 603e 4444 213e 23a1 803f d7fc 9fbe
000000f0: 9ace d3bd 15b3 abbd d5c7 af3e c740 d3bd
00000100: 29d3 e73d 7d2f dc3e dfa5 0bbf 4927 cebd
00000110: e2c1 713e 68f1 223f a64c 60be 4548 30be
00000120: eefe a8be 429c 92bd 0c1f 96bd 0caf 163e
00000130: 56f8 bd3e 1763 733e cd34 17be 017d 963e
00000140: b9b2 2cbe f429 8dbe f29e 66be fa39 69bd
00000150: 4d7c 62be 5623 2d3d 7cc9 1bbf 6d8a 52be
00000160: 4396 a0bb c9e1 40be 5615 81be b6ed 9fbe
00000170: c883 a7bd b670 143e 0e50 4bbe 1f59 0abe
00000180: 7070 72be e3fc 72be 5c2e 4fbe b742 00bf
00000190: b1f0 243e 16b0 05be 8ec6 a5be c955 a4be
000001a0: d5c4 0bbf 61f2 0bbe 716a 01bf 3068 3ebd
000001b0: e91d f13c 4493 e3be a0e7 c3bc 2c1a cabe
000001c0: 2f37 a4be 3a82 1ebf 7b7b 063e f10b a8be
000001d0: e658 dfbe f0e9 c1be 4326 c2be f7c7 c7bd
000001e0: 6ecd bebe bf5b 5f3e f51d 43be 281f aa3e
000001f0: 0cbd 16bf 9b9d f4be 1a74 7abe e633 d93d
00000200: 04a6 30be f6fb 0dbe f4be 65bd 0113 50be
00000210: c0b3 e43e b36a 32be dc4e a3be 56c0 a5be
00000220: 7c0b 16bd 2332 783e c748 d43d 3a89 cf3d
00000230: b609 95be 5cdd ecbd 9d6e febe 1aad 54be
00000240: bd8f 4dbe cb3c 5b3e 9e6b b23e fcb6 7ebe
00000250: da06 aebd b7f4 62be 6290 dfbe f72d 13bf
00000260: fb35 d5be dd4b 77be 0f54 0ebf 2b99 0cbf
00000270: bb59 c6be 73e9 01bd ca42 69be a7b3 823f
00000280: e0f9 00be ba2f 9bbe cc69 c1bb ac1e e53d
00000290: d00a 1c3e 9533 22bf f41a 22be 0925 133f
000002a0: 9ce6 a8be 35fa 59bf 9906 58be be4c 88be
000002b0: 22f8 c7bd 7891 00be af11 eabd 1eca 1fbe
000002c0: ee0a 3ebf 224c 2f3d d5d0 b3be 93c5 88be
000002d0: 563d 93bc 5533 803d 66da 23be 7646 e4bd
000002e0: 2489 19bf 63d5 f7be 2b6d fbbd b100 8d3d
000002f0: 92c4 8dbe 8a41 69bd 0f79 cabe 5fb9 4abe
00000300: fd85 a0be 695a 7dbe 1156 e6be 6127 5cbe
00000310: df5b b9be 9fab 9abd abde a1be e121 b1bd
00000320: febe d0bc 397e 08be ac69 21be dde5 103f
00000330: 4854 42be 975b 5a3e 6643 d73e 3dba 163e
00000340: b43a cbbe 2db2 97bd c09e 9b3c b495 63be
00000350: 6988 0bbf 47ff 003e 0c57 733e a80f 07bd
00000360: 7946 97be 811f 77be 74a4 903d faff 803e
00000370: 954d 073f df8a 3cbe e18a 433e c7cb 043f
00000380: de8e cb3d 43a4 663e 3275 54bd e2b3 823d
00000390: 8abd 743d 6204 48be 9c7a c93e fb6f b23f
000003a0: 8e37 043d abed 88bc c7b2 523e 2bfb d23e
000003b0: cbc1 063f a86d bcbe e60f 9c3e 2a7c 203e
000003c0: 11c1 cf3e a4a3 143f d9dc 30bf b33b 3ebe
000003d0: 601e 313f f773 12bf 16cf dabb 62a6 913d
000003e0: 5cdd a23e 1c27 843e 397d 0d3f 5f36 5b3e
000003f0: 2ada edbc 97b0 8b3e 112c 09be 368b cd3e

net.net.8.bias f4 [10]
-0.0769306 0.37561026 -0.1978034 -0.5005182 -0.26517326 -0.3645854 0.078843765 -0.4498034
1.2321155 0.1682749
00000000: ca8d 9dbd fd4f c03e f98c 4abe f621 00bf
00000010: cac4 87be f0aa babe d778 a13d a24c e6be
00000020: f6b5 9d3f 4150 2c3e
