GradientEpisodicMemory/results/gem_mnist_rotations.pt_01_34.pt (torch_old, 445492 bytes, 12 tensors)

tensor f4 [41]
0.0 0.0 0.0 1.0 1.0 2.0 2.0 3.0
3.0 4.0 4.0 5.0 5.0 6.0 6.0 7.0
7.0 8.0 8.0 9.0 9.0 10.0 10.0 11.0
11.0 12.0 12.0 13.0 13.0 14.0 14.0 15.0
15.0 16.0 16.0 17.0 17.0 18.0 18.0 19.0
19.0
00000000: 0000 0000 0000 0000 0000 0000 0000 803f
00000010: 0000 803f 0000 0040 0000 0040 0000 4040
00000020: 0000 4040 0000 8040 0000 8040 0000 a040
00000030: 0000 a040 0000 c040 0000 c040 0000 e040
00000040: 0000 e040 0000 0041 0000 0041 0000 1041
00000050: 0000 1041 0000 2041 0000 2041 0000 3041
00000060: 0000 3041 0000 4041 0000 4041 0000 5041
00000070: 0000 5041 0000 6041 0000 6041 0000 7041
00000080: 0000 7041 0000 8041 0000 8041 0000 8841
00000090: 0000 8841 0000 9041 0000 9041 0000 9841
000000a0: 0000 9841

tensor f4 [41, 20]
0.1244 0.1211 0.1175 0.1008 0.0813 0.0761 0.0738 0.082
0.0818 0.0849 0.0846 0.0751 0.0985 0.1103 0.1426 0.1242
0.1237 0.1192 0.1076 0.105 0.7152 0.7047 0.6429 0.519
0.417 0.2862 0.284 0.2029 0.1837 0.1703 0.1714 0.1728
0.1798 0.1915 0.2036 0.1844 0.1924 0.1925 0.2049 0.2103
0.7663 0.7349 0.6552 0.5127 0.4063 0.2741 0.2665 0.1776
0.1371 0.1315 0.1323 0.1363 0.1364 0.1527 0.1591 0.1502
0.1609 0.1652 0.1762 0.1923 0.8227 0.832 0.7853 0.6647
0.5133 0.3199 0.3113 0.2013 0.1601 0.1532 0.154 0.1549
0.1526 0.1566 0.1567 0.1415 0.1471 0.1522 0.1618 0.1735
0.8429 0.8582 0.8023 0.6628 0.5231 0.3567 0.3524 0.2548
0.1961 0.1663 0.1659 0.1376 0.1289 0.1285 0.1351 0.1312
0.1378 0.141 0.1443 0.1508 0.7819 0.8216 0.8073 0.7296
0.6147 0.4424 0.4347 0.3195 0.2481 0.2118 0.211 0.1887
0.1805 0.1801 0.1875 0.184 0.1868 0.1803 0.17 0.1673
0.8112 0.8645 0.8572 0.7864 0.6773 0.488 0.4805 0.3264
0.2076 0.1621 0.1636 0.1383 0.1297 0.1302 0.1335 0.133
0.1379 0.1453 0.1421 0.1539 0.7093 0.7556 0.764 0.7373
0.6775 0.5178 0.5072 0.347 0.2279 0.1703 0.1699 0.1413
0.1205 0.1162 0.1048 0.0896 0.092 0.0953 0.0932 0.1028
0.8047 0.8731 0.893 0.877 0.8225 0.6669 0.6594 0.4708
0.3127 0.2194 0.2198 0.1631 0.1395 0.1374 0.1415 0.1406
0.1596 0.1678 0.1783 0.1919 0.8261 0.8842 0.8999 0.8972
0.8687 0.7588 0.7533 0.5633 0.38 0.2531 0.2532 0.1773
0.1505 0.1473 0.1572 0.1508 0.166 0.181 0.1931 0.2091
0.7728 0.8469 0.8708 0.8893 0.8779 0.795 0.7882 0.6237
0.4347 0.2965 0.295 0.2181 0.1959 0.1873 0.1805 0.1673
0.1706 0.1672 0.1564 0.1572 0.8205 0.8821 0.8996 0.9047
0.9 0.8407 0.8336 0.6809 0.4854 0.3049 0.3033 0.1914
0.1551 0.147 0.1568 0.1532 0.1613 0.1681 0.1653 0.1798
0.8217 0.8792 0.8964 0.9105 0.9054 0.8806 0.8773 0.7832
0.5942 0.4033 0.4002 0.2286 0.1745 0.169 0.1583 0.1472
00000000: 6dc5 fe3d 4703 f83d d7a3 f03d 3b70 ce3d
00000010: 9d80 a63d 51da 9b3d 7424 973d 9eef a73d
00000020: c286 a73d 0de0 ad3d c442 ad3d 07ce 993d
00000030: 5eba c93d f7e4 e13d bc05 123e 925c fe3d
00000040: 6d56 fd3d 211f f43d 645d dc3d 3d0a d73d
00000050: 5917 373f 3867 343f 1895 243f 2fdd 043f
00000060: 0681 d53e ce88 923e 7368 913e 05c5 4f3e
00000070: da1b 3c3e 2063 2e3e 7b83 2f3e 7cf2 303e
00000080: 7e1d 383e 9318 443e 857c 503e 5bd3 3c3e
00000090: 8104 453e b81e 453e 4ed1 513e e258 573e
000000a0: 3d2c 443f 6822 3c3f 30bb 273f 4f40 033f
000000b0: 8e06 d03e d656 8c3e b072 883e c6dc 353e
000000c0: f163 0c3e f0a7 063e a779 073e 3a92 0b3e
000000d0: 71ac 0b3e 645d 1c3e 1ceb 223e 07ce 193e
000000e0: f8c2 243e 302a 293e c66d 343e 4bea 443e
000000f0: 789c 523f f4fd 543f 6c09 493f c729 2a3f
00000100: a167 033f efc9 a33e b762 9f3e 9621 4e3e
00000110: 41f1 233e 76e0 1c3e 2db2 1d3e 1b9e 1e3e
00000120: 2d43 1c3e c05b 203e f775 203e 60e5 103e
00000130: 62a1 163e 51da 1b3e e6ae 253e fca9 313e
00000140: 4bc8 573f ffb2 5b3f 8863 4d3f 43ad 293f
00000150: e2e9 053f 62a1 b63e c66d b43e 2575 823e
00000160: 70ce 483e 8c4a 2a3e b1e1 293e 04e7 0c3e
00000170: 5dfe 033e 8195 033e a857 0a3e 4b59 063e
00000180: 711b 0d3e 4e62 103e 61c3 133e 516b 1a3e
00000190: 992a 483f 6154 523f 36ab 4e3f 11c7 3a3f
000001a0: fb5c 1d3f 4182 e23e 0091 de3e 8195 a33e
000001b0: ed0d 7e3e 19e2 583e 6210 583e 933a 413e
000001c0: fed4 383e 226c 383e 0000 403e 7f6a 3c3e
000001d0: 8048 3f3e 90a0 383e 7b14 2e3e b150 2b3e
000001e0: ceaa 4f3f df4f 5d3f 7671 5b3f 8351 493f
000001f0: 8863 2d3f 23db f93e 1904 f63e e71d a73e
00000200: 1895 543e 8bfd 253e c286 273e 849e 0d3e
00000210: 14d0 043e 2653 053e 39b4 083e 2731 083e
00000220: a835 0d3e 86c9 143e aa82 113e f697 1d3e
00000230: af94 353f 006f 413f 8195 433f b1bf 3c3f
00000240: a470 2d3f 8a8e 043f dcd7 013f fca9 b13e
00000250: 9e5e 693e 2063 2e3e 44fa 2d3e f2b0 103e
00000260: b4c8 f63d 44fa ed3d 62a1 d63d 3480 b73d
00000270: 7f6a bc3d a52c c33d a4df be3d ce88 d23d
00000280: d200 4e3f 7b83 5f3f a69b 643f 1283 603f
00000290: 5c8f 523f f5b9 2a3f 70ce 283f b30c f13e
000002a0: 371a a03e 65aa 603e 4013 613e b003 273e
000002b0: 17d9 0e3e 96b2 0c3e 60e5 103e 72f9 0f3e
000002c0: 2f6e 233e c3d3 2b3e 4694 363e 6f81 443e
000002d0: 4a7b 533f ee5a 623f d95f 663f e6ae 653f
000002e0: 2063 5e3f b840 423f 45d8 403f 6e34 103f
000002f0: 5c8f c23e 5396 813e 6ea3 813e 228e 353e
00000300: ac1c 1a3e d0d5 163e 09f9 203e 516b 1a3e
00000310: e7fb 293e 1058 393e 02bc 453e 4f1e 563e
00000320: 39d6 453f 70ce 583f c0ec 5e3f 2aa9 633f
00000330: 0ebe 603f 1f85 4b3f 7ac7 493f ceaa 1f3f
00000340: 0091 de3e d9ce 973e 3d0a 973e 9b55 5f3e
00000350: 029a 483e 92cb 3f3e fed4 383e b150 2b3e
00000360: c4b1 2e3e 7a36 2b3e 5227 203e 09f9 203e
00000370: 4a0c 523f 4ed1 613f 304c 663f 6b9a 673f
00000380: 6666 663f 1d38 573f cf66 553f 764f 2e3f
00000390: 5986 f83e da1b 9c3e 234a 9b3e 5dfe 433e
000003a0: 89d2 1e3e 2b87 163e 2e90 203e 76e0 1c3e
000003b0: d42b 253e 6822 2c3e 6744 293e 7e1d 383e
000003c0: ee5a 523f 4013 613f 787a 653f 8716 693f
000003d0: 4bc8 673f 006f 613f bc96 603f cc7f 483f
000003e0: 7e1d 183f 567d ce3e 04e7 cc3e 1e16 6a3e
000003f0: 21b0 323e 560e 2d3e 6519 223e 99bb 163e

net.net.0.weight f4 [100, 784]
-0.031851172 -0.01384519 -0.05440535 0.020542592 -0.050104253 0.027994245 0.049990952 0.03338019
0.072076194 -0.059165128 -0.028836966 -0.08581842 -0.020980358 -0.060497858 -0.06509051 -0.08245807
-0.05423683 0.012783036 0.06731692 0.042126972 -0.029469632 0.06430475 -0.07052995 0.051878378
-0.043030437 0.051109523 -0.050017092 0.07855603 -0.026291091 0.0450781 0.07078566 0.052271605
-0.07045137 0.053036656 0.039248716 -0.027213788 -0.031102315 -0.076614514 -0.088101305 -0.08108203
0.0056115026 -0.029965406 0.06319057 -0.031066107 0.027527034 0.061197348 -0.06643864 0.029627923
0.03507993 -0.028847033 0.026123859 -0.0027361286 0.015654184 0.05635777 0.051725954 0.04001738
-0.028382856 -0.06797978 -0.013872504 0.024998762 0.073888205 -0.011257211 -0.0071222666 0.049115185
-0.0149725275 -0.024164857 0.035714883 -0.05908304 -0.005284282 0.02834382 0.12099924 0.008830562
-0.015664916 0.14351474 0.012307714 -0.020557689 0.06984553 -0.017062655 0.072161265 0.042261332
-0.072314255 -0.014744222 -0.018558696 0.055126786 -0.0302786 0.07367259 -0.007340923 0.0069230795
-0.08349742 0.013366128 0.0025660687 0.02867842 -0.08780594 -0.042742677 -0.16534843 -0.011122718
-0.03918129 0.025640797 0.0046363324 0.11015463 0.07969644 0.071885906 0.09051 0.08605529
0.12217475 0.071113825 0.10754981 -0.022688748 0.059888404 -0.020945715 0.06470317 0.04919149
-0.057665814 -0.05399851 0.025485251 0.076695755 -0.048133336 -0.01676378 -0.08714753 0.0065705804
-0.17884871 -0.18756211 -0.060579844 -0.14927268 -0.08731803 -0.10068834 -0.09158877 0.06898036
0.0625844 0.045055304 0.15318826 0.16109224 0.11460828 0.011660719 -0.04956963 0.085658334
-0.07565581 -0.027679821 -0.05622609 -0.0003039688 0.053297043 0.0059999786 -0.07620852 -0.023276778
0.058140647 -0.05749157 -0.058972977 -0.006104999 -0.110301055 -0.11375674 -0.08614282 -0.101846404
-0.030141486 0.015594494 0.15388767 0.036185186 -0.0026274477 -0.022516204 0.04188404 0.037400424
-0.07606205 -0.016564917 -0.04560881 0.03562713 -0.011975919 -0.028870072 0.07579184 -0.062483568
-0.057316065 0.07494299 0.012228549 0.0949044 0.009692381 0.0005724164 0.022417624 -0.059044268
-0.22946863 -0.219417 -0.15137471 -0.03743703 0.08580167 0.1396874 -0.03671009 0.022613756
0.1137781 0.046178177 0.03246418 -0.03515247 -0.045812946 0.021193977 0.023473611 -0.0073325187
-0.04828192 0.06852991 0.023144495 0.011000881 -0.054145534 0.06631289 -0.022696678 -0.023434065
-0.009074817 0.06608385 -0.009715871 -0.17837515 -0.2838685 -0.14099395 -0.11613676 0.19243024
0.18048294 0.109981224 0.16272792 0.09046622 0.022578219 0.12676193 0.081164405 0.011754492
-0.015658846 -0.0038665761 0.012535441 0.025326945 0.008258649 0.0022434178 -0.08055708 -0.011025383
0.019945273 -0.0055472264 -0.01942066 -0.0077560623 -0.03324637 -0.057112545 -0.1395024 -0.2584202
-0.32272786 -0.16025703 -0.011958799 0.03890298 0.08860682 0.20551121 0.068404004 0.06464422
-0.015071638 -0.07736605 0.06073722 -0.022421984 -0.009894484 -0.06944151 -0.12754673 -0.004089876
0.08009243 -0.08547184 0.051608436 0.0543757 -0.034206554 -0.013703435 0.0363021 0.06655753
00000000: 6076 02bd f0d6 62bc 25d8 5ebd f048 a83c
00000010: 1e3a 4dbd 3054 e53c 50c3 4c3d abb9 083d
00000020: af9c 933d 2257 72bd 803b ecbc 91c1 afbd
00000030: 00df abbc 9acc 77bd 2c4e 85bd c7df a8bd
00000040: 7027 5ebd f06f 513c 74dd 893d 558d 2c3d
00000050: 4c6a f1bc 35b2 833d 0272 90bd 6c7e 543d
00000060: af40 30bd 3858 513d b9de 4cbd fce1 a03d
00000070: 6a60 d7bc d0a3 383d 12f8 903d c01a 563d
00000080: cf48 90bd f73c 593d 43c3 203d 73ef debc
00000090: 48ca febc 12e8 9cbd 756e b4bd 560e a6bd
000000a0: b2e0 b73b 037a f5bc 0f6a 813d 597e febc
000000b0: 6080 e13c 12aa 7a3d fb10 88bd 42b6 f23c
000000c0: f9af 0f3d 9d50 ecbc b401 d63c 9f50 33bb
000000d0: 343d 803c 68d7 663d 98de 533d 44e9 233d
000000e0: 2a83 e8bc fc38 8bbd 8049 63bc 34ca cc3c
000000f0: b352 973d 2a70 38bc e761 e9bb 012d 493d
00000100: 554f 75bc 61f5 c5bc c549 123d 0f01 72bd
00000110: c527 adbb 4c31 e83c 73ce f73d 10ae 103c
00000120: b653 80bc 87f5 123e 4ba6 493c 9968 a8bc
00000130: 2c0b 8f3d fbc6 8bbc 49c9 933d 381a 2d3d
00000140: 7f19 94bd c091 71bc 6808 98bc a0cc 613d
00000150: d40a f8bc a8e1 963d 208c f0bb 00db e23b
00000160: b200 abbd 9bfd 5a3c 7d2b 283b 02ef ea3c
00000170: 9ad3 b3bd f212 2fbd 1951 29be 103c 36bc
00000180: 8f7c 20bd a60c d23c 60ec 973b c098 e13d
00000190: e337 a33d eb38 933d 4f5d b93d c23d b03d
000001a0: c136 fa3d 20a4 913d 1343 dc3d c1dd b9bc
000001b0: 8b4d 753d 5996 abbc 1883 843d 047d 493d
000001c0: fd32 6cbd 8b2d 5dbd 72c6 d03c aa12 9d3d
000001d0: 7627 45bd 3254 89bc 677a b2bd 064e d73b
000001e0: 1e24 37be 4810 40be 9222 78bd f0da 18be
000001f0: ccd3 b2bd b035 cebd e592 bbbd 9345 8d3d
00000200: 402c 803d e98b 383d 62dd 1c3e 5df5 243e
00000210: bfb7 ea3d 9a0c 3f3c 8609 4bbd a36d af3d
00000220: 6ff1 9abd cbc0 e2bc 544d 66bd 005e 9fb9
00000230: 004e 5a3d 789b c43b 3613 9cbd f1ae bebc
00000240: e324 6e3d 487c 6bbd a68d 71bd 720c c8bb
00000250: 85e5 e1bd 4bf9 e8bd a66b b0bd d994 d0bd
00000260: 47eb f6bc 0c80 7f3c bb94 1d3e eb36 143d
00000270: 4231 2cbb e773 b8bc 998e 2b3d 3031 193d
00000280: 6cc6 9bbd 26b3 87bc 4ed0 3abd c1ed 113d
00000290: a536 44bc ee80 ecbc c138 9b3d c5ee 7fbd
000002a0: 40c4 6abd b67b 993d 415a 483c 3d5d c23d
000002b0: cbcc 1e3c 370e 163a 2aa5 b73c 67d8 71bd
000002c0: d3f9 6abe daae 60be f901 1bbe 9257 19bd
000002d0: c9b8 af3d 370a 0f3e 525d 16bd 7c40 b93c
000002e0: 7e04 e93d 5425 3d3d 29f9 043d 09fc 0fbd
000002f0: 5ba6 3bbd fe9e ad3c bb4b c03c a045 f0bb
00000300: 43c3 45bd 6959 8c3d 8699 bd3c 0a3d 343c
00000310: b5c7 5dbd 0dcf 873d 62ee b9bc ccf8 bfbc
00000320: 8bae 14bc f856 873d 512f 1fbc faa7 36be
00000330: 3657 91be b860 10be 1cd9 edbd 6f0c 453e
00000340: 85d0 383e d63d e13d 26a2 263e 5b46 b93d
00000350: f5f5 b83c e1cd 013e 8639 a63d ea95 403c
00000360: fb46 80bc 6266 7dbb 7361 4d3c 747a cf3c
00000370: 494f 073c 4e06 133b 1cfb a4bd cfa3 34bc
00000380: 4564 a33c 82c5 b5bb 1318 9fbc 9126 febb
00000390: 582d 08bd d8ee 69bd b8d9 0ebe a74f 84be
000003a0: 963c a5be 6b1a 24be d7ee 43bc bb58 1f3d
000003b0: 7e77 b53d 8871 523e 6617 8c3d 3064 843d
000003c0: 08ef 76bc 1772 9ebd 97c7 783d 4fae b7bc
000003d0: 791c 22bc 5a37 8ebd 9c9b 02be 5e04 86bb
000003e0: 8007 a43d dc0b afbd 5e63 533d 0eb9 5e3d
000003f0: 2c1c 0cbd 5f84 60bc 83b1 143d 504f 883d

net.net.0.bias f4 [100]
0.25507754 0.0045388583 0.14524293 -0.38401523 0.1276819 -0.07075107 -0.009320838 0.16286659
0.06482518 0.122092344 0.09275189 -0.013424419 0.035763886 0.06445933 0.06487355 -0.22571151
0.05592075 -0.13175797 0.08157534 -0.05069991 0.01471949 0.019029845 -0.016339349 -0.0374713
-0.06862022 -0.23545875 0.20416526 0.0104397265 0.04756378 -0.042894106 0.08033477 -0.061065592
0.12548696 0.11499803 -0.01143506 -0.022923209 -0.03249965 0.048172656 0.05750072 0.20352197
0.056230746 0.043699585 0.014619683 -0.13164476 -0.060079265 0.113339834 0.026733348 0.06855375
-0.084647335 0.08823728 -0.05321988 -0.11607853 0.009564193 0.04047912 -0.028870963 -0.035776433
-0.1214121 0.04016374 -0.13132788 0.080768056 -0.15098037 0.054700445 0.196047 -0.017860025
0.054437727 0.19555044 -0.12578905 0.21006432 -0.16289267 -0.06126653 -0.31287196 -0.020579351
-0.0075335293 0.07942237 0.123601206 -0.3995371 0.07907411 -0.19856621 -0.06946626 0.09561013
-0.2884876 0.1664777 0.08987985 0.28832075 0.12410868 0.08716397 -0.08650353 0.07024514
-0.044560898 0.020364389 -0.16277553 0.04909526 0.08931726 -0.31751904 0.074349746 0.10577297
0.021764869 0.15898833 0.019791052 0.076825365
00000000: 8699 823e b4ba 943b 90ba 143e a59d c4be
00000010: 0bbf 023e f0e5 90bd 6eb6 18bc 80c6 263e
00000020: 10c3 843d 8d0b fa3d b4f4 bd3d 18f2 5bbc
00000030: 277d 123d 4103 843d 6cdc 843d eb20 67be
00000040: 280d 653d 90eb 06be f910 a73d b5aa 4fbd
00000050: 042a 713c 7ae4 9b3c 19da 85bc 827b 19bd
00000060: c288 8cbd 191c 71be b310 513e 630b 2b3c
00000070: 3dd2 423d bbb1 2fbd 8e86 a43d ea1f 7abd
00000080: a77f 003e 1684 eb3d 1e5a 3bbc 74c9 bbbc
00000090: 5a1e 05bd b150 453d e085 6b3d 1068 503e
000000a0: 3652 663d 56fe 323d 6587 6f3c e2cd 06be
000000b0: ad15 76bd b71e e83d e5ff da3c e965 8c3d
000000c0: 955b adbd bfb5 b43d 17fd 59bd 95ba edbd
000000d0: 22b3 1c3c 6fcd 253d cc82 ecbc 4f8a 12bd
000000e0: e8a6 f8bd bc82 243d d17a 06be b969 a53d
000000f0: 999a 1abe 930d 603d 8bc0 483e 304f 92bc
00000100: 18fa 5e3d 603e 483e d8ce 00be 1a1b 573e
00000110: 56cd 26be 9df2 7abd c130 a0be 0796 a8bc
00000120: d3db f6bb 32a8 a23d a122 fd3d 2090 ccbe
00000130: 9bf1 a13d f154 4bbe 5444 8ebd 3ecf c33d
00000140: a6b4 93be 2179 2a3e ed12 b83d c79e 933e
00000150: b12c fe3d 0683 b23d c328 b1bd afdc 8f3d
00000160: 7d85 36bd 38d3 a63c a1ae 26be 1d18 493d
00000170: f8eb b63d db91 a2be ae44 983d 809f d83d
00000180: 3d4c b23c d6cd 223e d820 a23c 9e56 9d3d

net.net.2.weight f4 [100, 100]
-0.18485153 -0.040109586 -0.025860844 -0.08784326 0.0628124 -0.089533046 -0.06771346 0.11628378
-0.08725944 0.043370094 -0.15915368 -0.1483702 -0.19927269 -0.07799661 -0.030237976 0.030514875
0.043690175 0.00549755 0.13222432 0.03085419 -0.04452385 -0.038504314 0.09108691 -0.16774873
0.21988371 0.14107624 0.05778699 0.11019494 0.0047760354 0.15337475 0.05040492 0.13589212
0.058010064 -0.057882246 -0.08762049 -0.08643628 -0.051342305 0.18123832 -0.05503959 -0.055621788
-0.050383408 -0.16690633 -0.007494993 -0.13202526 -0.023922268 -0.10372751 0.00951495 -0.18674612
-0.08964288 -0.02107664 -0.21101777 0.19406174 -0.24010122 -0.0954688 -0.012805228 0.026062695
-0.0010754036 -0.12930693 -0.22185646 -0.16771448 0.016185474 -0.107621595 -0.1386998 0.15517536
0.2091204 -0.090285026 -0.08538047 0.14827207 0.15768881 -0.19280148 0.006125948 -0.12936798
-0.07602622 -0.11088878 0.014829411 -0.038584948 -0.070752285 0.10380485 0.024444591 -0.0023605628
-0.11884569 -0.20100309 0.14831313 -0.06113484 0.12665212 -0.037846655 0.022673741 0.050783057
0.12012318 -0.0753788 0.05986914 0.11179058 -0.12636867 0.094113566 0.031666018 -0.11976003
0.02552277 0.047486942 -0.08634033 -0.15837286 0.15220436 -0.1899814 -0.29534376 -0.33629033
0.12443511 -0.16393204 0.33366758 -0.19531311 -0.0589492 0.21123028 0.06049042 -0.017130932
0.37640467 -0.15400757 -0.03466401 0.41882655 0.023993526 -0.19393001 0.17315325 -0.5002947
0.013800978 0.3175973 -0.11142594 -0.2504759 -0.08877172 0.100818 -0.14441891 0.07017103
0.06949525 -0.08145182 0.07218784 0.03215696 0.34728983 0.07039746 0.034743663 0.09619011
-0.021652695 0.07019015 0.064110614 0.009244802 -0.10775295 -0.06950492 0.28627002 -0.2124922
0.16578154 0.2136149 -0.14478722 -0.2691818 -0.072560295 -0.26204824 -0.13336773 0.22551994
0.2421778 -0.16916992 0.065306254 -0.22541955 0.34034488 0.15909731 -0.16222633 -0.24034964
-0.32447854 0.2888401 0.09967421 0.1186002 -0.031732664 -0.13139562 0.08268899 -0.31772634
-0.20801146 -0.29840153 0.069922134 -0.06792431 0.0047101392 -0.27399558 -0.27246448 0.301763
-0.19062473 -0.047551733 -0.24799427 -0.018038549 0.011810137 0.10798528 0.055863556 -0.20602693
-0.063771926 0.27843553 0.0073578954 -0.113388225 0.13127005 0.25471863 0.065228045 -0.16993433
-0.06897169 0.021753991 0.02020691 0.06722629 -0.2956369 0.098679826 0.06340863 0.056707446
-0.34227225 0.10496855 -0.1900268 0.35452968 -0.38887364 0.139431 0.10063268 0.032319896
-0.09239505 -0.09273148 -0.006692275 -0.015675746 0.10625674 -0.076062694 -0.12292322 0.12780668
-0.08565838 0.17033525 0.033555526 -0.22795011 -0.15279959 -0.07019714 0.16925968 -0.19920926
0.2693172 -0.19826965 0.18543833 0.17320053 0.15534948 -0.012547657 0.059014395 -0.030716205
0.09597805 -0.12357144 0.19197658 -0.10925629 0.25033197 -0.092855565 -0.14258254 -0.08797276
-0.004754269 0.045689307 -0.052724127 -0.321976 0.017812856 0.055297136 0.077954754 -0.024783632
-0.10337086 -0.20927669 -0.14501105 -0.1824161 -0.080362454 -0.23123991 0.09770214 0.06979255
00000000: b849 3dbe f349 24bd 1fda d3bc 2be7 b3bd
00000010: caa3 803d 1a5d b7bd 5bad 8abd 3126 ee3d
00000020: 14b5 b2bd d7a4 313d 2ff9 22be 5cee 17be
00000030: 240e 4cbe b0bc 9fbd a2b5 f7bc 55fa f93c
00000040: 78f4 323d cb24 b43b d065 073e edc1 fc3c
00000050: a45e 36bd b3b6 1dbd c68b ba3d 53c6 2bbe
00000060: 3229 613e 4a76 103e 0db2 6c3d e2ad e13d
00000070: 4a80 9c3b 450e 1d3e 6475 4e3d 4e27 0b3e
00000080: f69b 6d3d ef15 6dbd 5f72 b3bd 8105 b1bd
00000090: 4f4c 52bd 8a96 393e 3171 61bd acd3 63bd
000000a0: d55e 4ebd 7ee9 2abe 8f98 f5bb a131 07be
000000b0: a2f8 c3bc 176f d4bd 98e4 1b3c 603a 3fbe
000000c0: b096 b7bd eba8 acbc 0b15 58be 1fb8 463e
000000d0: 18dd 75be 2585 c3bd 05cd 51bc 6f81 d53c
000000e0: 8ff4 8cba 0969 04be 572e 63be 58bd 2bbe
000000f0: 6697 843c b668 dcbd 5207 0ebe 4ae6 1e3e
00000100: a823 563e 5be7 b8bd f5db aebd a2d4 173e
00000110: 2d79 213e c06d 45be 2dbc c83b 0a79 04be
00000120: a3b3 9bbd a819 e3bd 0ff7 723c 400b 1ebd
00000130: 93e6 90bd a397 d43d 0640 c83c acb3 1abb
00000140: 5e65 f3bd c1d3 4dbe 66df 173e 8768 7abd
00000150: 18b1 013e 1805 1bbd 48be b93c e501 503d
00000160: 2403 f63d 3360 9abd 5839 753d 76f2 e43d
00000170: ca66 01be 9dbe c03d 3ab4 013d bf44 f5bd
00000180: 2115 d13c ab81 423d 33d3 b0bd 7f2c 22be
00000190: 76db 1b3e 7c8a 42be 4c37 97be 3f2e acbe
000001a0: d6d7 fe3d cddd 27be 7ad6 aa3e 2900 48be
000001b0: b774 71bd c04c 583e cdc4 773d 2b56 8cbc
000001c0: 1db8 c03e 29b4 1dbe d9fb 0dbd 6f70 d63e
000001d0: 128e c43c 9795 46be 164f 313e 5013 00bf
000001e0: 7f1d 623c 1d9c a23e 4933 e4bd 613e 80be
000001f0: f3cd b5bd ab79 ce3d 8de2 13be d4b5 8f3d
00000200: 8753 8e3d 36d0 a6bd 38d7 933d 04b7 033d
00000210: f9cf b13e 8b2c 903d 5f4f 0e3d 52ff c43d
00000220: fe60 b1bc dabf 8f3d 6d4c 833d 8377 173c
00000230: 94ad dcbd 9858 8ebd fc91 923e 8e97 59be
00000240: a3c2 293e ddbd 5a3e 1a43 14be 32d2 89be
00000250: 7e9a 94bd 302b 86be 8d91 08be b3ee 663e
00000260: 75fd 773e e13a 2dbe 49bf 853d 62d4 66be
00000270: af41 ae3e 68ea 223e a91e 26be 371e 76be
00000280: 0d22 a6be d9e2 933e fe21 cc3d a9e4 f23d
00000290: 1cfa 01bd 938c 06be d858 a93d 07ad a2be
000002a0: f500 55be 16c8 98be 5633 8f3d e71b 8bbd
000002b0: 8357 9a3b 2649 8cbe 7780 8bbe ae80 9a3e
000002c0: 2133 43be 9bc5 42bd 36f2 7dbe 94c5 93bc
000002d0: 4e7f 413c 6327 dd3d 2fd1 643d b9f8 52be
000002e0: db9a 82bd 1a8f 8e3e 801a f13b 1638 e8bd
000002f0: a86b 063e 7b6a 823e 4896 853d 4403 2ebe
00000300: 0841 8dbd 6d35 b23c f688 a53c f0ad 893d
00000310: b85d 97be a618 ca3d 62dc 813d 1146 683d
00000320: 4f3e afbe c0f9 d63d 6396 42be ea84 b53e
00000330: 721a c7be 00c7 0e3e 8218 ce3d de61 043d
00000340: 9e39 bdbd 01ea bdbd df4a dbbb 6c6a 80bc
00000350: 229d d93d c2c6 9bbd 2bbf fbbd c1df 023e
00000360: a96d afbd 5d6c 2e3e 8571 093d c16b 69be
00000370: 7f77 1cbe 85c3 8fbd 6952 2d3e 83fd 4bbe
00000380: f2e3 893e 3307 4bbe 8ce3 3d3e 7b5b 313e
00000390: ef13 1f3e b094 4dbc 14b9 713d 8da0 fbbc
000003a0: 2490 c43d 0613 fdbd 8295 443e c3c1 dfbd
000003b0: 832b 803e 0f2b bebd 2801 12be 102b b4bd
000003c0: b3c9 9bbb b624 3b3d 41f5 57bd 0ada a4be
000003d0: 44ec 913c 407f 623d bea6 9f3d 0b07 cbbc
000003e0: 1ab4 d3bd a14c 56be c77d 14be 49cb 3abe
000003f0: 1295 a4bd 28ca 6cbe 0f18 c83d 65ef 8e3d

net.net.2.bias f4 [100]
-0.0013916105 0.048175644 0.05110627 -0.06950228 -0.23385936 0.01689633 -0.009723627 -0.092331134
0.16267058 -0.09398253 -0.0034179133 -0.10295027 0.03573893 -0.010019473 -0.19825315 -0.047328867
-0.2001829 0.008123658 -0.04345989 -0.07119077 -0.00765908 -0.051301297 -0.037316084 -0.043678448
0.02922361 -0.05084619 -0.22805254 -0.058319375 -0.030054474 -0.079117365 -0.024223251 -0.15250026
0.19121976 0.42367062 0.09408326 0.084986664 -0.06478348 -0.06426651 0.016971461 0.1311797
-0.06767245 0.30117124 0.041022234 0.07160255 0.03211227 0.086797684 -0.18476008 0.041727223
0.20641515 -0.068345875 -0.14027274 -0.0981381 0.0091247205 0.090502515 0.0029865159 0.05282558
0.002180574 0.014923212 0.14337869 -0.21041884 -0.23654737 0.109125294 0.06727885 0.033376414
0.13701431 0.04613578 0.10307109 0.1899281 -0.115743816 -0.049975693 -0.13660267 0.037436046
0.29127607 -0.063130006 -0.08262653 -0.005124618 -0.13479525 -0.15419333 -0.047122072 -0.0072096516
-0.028245943 0.16281088 -0.1951001 0.07873174 -0.10989782 -0.08212015 -0.057093814 0.063421614
0.027216699 -0.1587793 0.2355548 -0.010665824 -0.08377902 -0.022735624 0.09856586 0.07224672
0.07953659 0.19080755 0.036109757 -0.011907044
00000000: b366 b6ba d353 453d cf54 513d 3657 8ebd
00000010: d478 6fbe 2c6a 8a3c d94f 1fbc 1b18 bdbd
00000020: 1e93 263e ea79 c0bd 12ff 5fbb 97d7 d2bd
00000030: fc62 123d b728 24bc e002 4bbe eadb 41bd
00000040: bffc 4cbe 1719 053c ff02 32bd 77cc 91bd
00000050: 05f9 fabb 4f21 52bd c0d8 18bd 2ce8 32bd
00000060: 5a66 ef3c 1844 50bd 9b86 69be 4ce0 6ebd
00000070: cd34 f6bc 4908 a2bd d76f c6bc 0729 1cbe
00000080: 1dcf 433e 5beb d83e b9ae c03d 7d0d ae3d
00000090: 33ad 84bd 299e 83bd bc07 8b3c f953 063e
000000a0: da97 8abd 1e33 9a3e ee06 283d 5ca4 923d
000000b0: 2888 033d fcc2 b13d bf31 3dbe 2aea 2a3d
000000c0: 7e5e 533e ecf8 8bbd a8a3 0fbe a1fc c8bd
000000d0: da7f 153c 6259 b93d 6cb9 433b a35f 583d
000000e0: f6e7 0e3b 7d80 743c ddd1 123e 0978 57be
000000f0: 7939 72be 157d df3d 7ec9 893d b5b5 083d
00000100: 7b4d 0c3e dff8 3c3d f016 d33d 837c 423e
00000110: 180b edbd 50b3 4cbd 92e1 0bbe 8a56 193d
00000120: 2322 953e 4e4a 81bd 1938 a9bd 69ec a7bb
00000130: c407 0abe dbe4 1dbe 1303 41bd f13e ecbb
00000140: 0964 e7bc e5b7 263e 52c8 47be 1b3e a13d
00000150: 1c12 e1bd 9c2e a8bd 34db 69bd 31e3 813d
00000160: 8ef5 de3c 0a97 22be 4735 713e b5bf 2ebc
00000170: 5694 abbd 0f40 babc e6dc c93d 17f6 933d
00000180: 14e4 a23d 0e63 433e d3e7 133d c315 43bc

net.net.4.weight f4 [100, 100]
0.010884242 0.16361803 0.22032121 -0.025399692 -0.15146247 0.033395085 -0.14800943 0.21780334
-0.18734334 -0.05323525 0.24204203 0.06281305 -0.123371646 0.08760401 -0.040578626 0.027516192
0.04714174 -0.17017429 -0.011993338 0.012171546 0.007787229 -0.17354564 -0.21922755 -0.004098029
-0.05071454 -0.0022563855 0.012678433 -0.08293533 0.2493953 -0.18195462 -0.07172265 -0.069894336
-0.19088376 -0.0579258 -0.08967956 -0.03246275 0.05358454 0.05317181 0.24887651 0.17069206
-0.15211909 0.091470905 -0.07579366 -0.15869728 -0.07714979 -0.17737946 0.06287865 0.069268115
-0.25374737 0.1551987 0.085036725 0.20342721 0.29764953 -0.03313766 0.10815104 -0.06484974
-0.13743997 0.23051111 -0.114603445 0.04098913 0.26643893 -0.19663428 0.0608734 -0.21529938
0.18464257 -0.14500974 -0.14593942 -0.28631124 -0.08588627 -0.014216132 -0.18802847 -0.17041896
0.10475787 0.03471732 -0.032674227 -0.10793728 -0.11071093 0.18222277 -0.07109903 -0.04120026
-0.033383586 -0.25825983 -0.06466725 -0.0035562909 -0.14619544 0.20636116 -0.12244478 -0.017094685
0.03676408 0.12782988 -0.076277845 0.012277967 -0.22384922 0.04211327 -0.016090795 0.04969079
-0.1457368 0.18416232 0.038895257 0.12391548 0.07113372 0.17734082 0.05330144 -0.081403
0.020768506 -0.13791552 0.13073635 0.12280945 -0.28421006 -0.11569682 -0.12867518 0.04277978
-0.20202175 -0.20619334 -0.13977388 -0.09880629 0.0101383105 0.071932726 0.04617823 0.10685479
-0.0018167585 -0.041310973 0.088954 -0.12787564 -0.021460444 -0.09048638 0.026889283 -0.1499602
-0.1430084 -0.2389141 -0.02783783 0.05440445 -0.17510001 -0.04289071 -0.14294076 -0.030995455
-0.15067747 0.110072896 -0.18995026 -0.12840252 0.0051639 -0.14904423 0.19982603 0.0010699378
0.030699803 0.108195566 -0.07994795 -0.13004799 -0.14708987 -0.12877215 0.002554007 0.103580534
-0.023837669 0.18907428 -0.049124546 0.1245349 0.12078557 0.26656312 -0.048499614 -0.20716032
0.17956302 0.02489026 0.1654324 0.26764566 0.028035259 0.122108795 -0.07764224 -0.18507104
0.11058359 0.008633299 -0.053962536 0.012392887 0.13391967 0.30341592 0.042540427 0.35240597
-0.009922122 0.05044543 -0.015715495 -0.18461543 -0.14062133 -0.12981553 0.10757956 0.04145411
-0.16724983 -0.015325996 0.059538085 0.16364354 0.0040669884 -0.06963625 -0.18753093 0.20627727
0.023948545 0.114208244 -0.20405734 0.042332854 0.011722071 -0.0038976474 0.106611736 -0.025853159
0.005608067 -0.15605816 -0.09911418 0.044318262 0.07173575 -0.19819713 -0.04249433 -0.1790093
-0.0033207808 0.16915148 0.26168215 -0.06892277 0.14885491 -0.051949598 -0.17637447 -0.18701595
-0.23768832 -0.06375957 0.075801834 -0.100604236 -0.1540678 -0.12844814 -0.21279824 0.064489484
-0.16133891 0.09860401 0.077626795 -0.21120763 0.24869141 0.037087962 0.13639125 0.16701746
-0.13295303 -0.1769168 -0.07165002 -0.18032292 0.07504558 0.19549938 -0.048033968 0.24337316
0.214865 -0.11670501 0.21561976 0.054368008 -0.07862845 0.014243325 0.08639159 -0.08046856
0.10944237 -0.07352516 0.19444329 -0.008564666 -0.15078586 -0.02572608 0.14770044 -0.013008719
00000000: d253 323c 7c8b 273e e29b 613e 0413 d0bc
00000010: fa18 1bbe 49c9 083d c98f 17be d707 5f3e
00000020: efd6 3fbe 350d 5abd ded9 773e 21a4 803d
00000030: 46aa fcbd bb69 b33d c635 26bd a369 e13c
00000040: b217 413d 2b42 2ebe b57f 44bc 2a6b 473c
00000050: 032c ff3b f3b5 31be 307d 60be c248 86bb
00000060: 0dba 4fbd dedf 13bb 34b9 4f3c 00da a9bd
00000070: 7b61 7f3e 5052 3abe 53e3 92bd c324 8fbd
00000080: 0877 43be 9b43 6dbd eba9 b7bd a9f7 04bd
00000090: 767b 5b3d afca 593d 7cd9 7e3e e6c9 2e3e
000000a0: 1bc5 1bbe 1955 bb3d b539 9bbd 8a81 22be
000000b0: b600 9ebd f6a2 35be 86c6 803d 71dc 8d3d
000000c0: 2deb 81be 68ec 1e3e bc27 ae3d 394f 503e
000000d0: 8565 983e 5bbb 07bd 4b7e dd3d f1cf 84bd
000000e0: 10bd 0cbe 1b0b 6c3e 36b5 eabd 38e4 273d
000000f0: af6a 883e 7f5a 49be 6356 793d 7177 5cbe
00000100: f112 3d3e 6f7d 14be 2571 15be 6397 92be
00000110: 24e5 afbd c8ea 68bc 898a 40be 4f82 2ebe
00000120: 4b8b d63d c033 0e3d 69d5 05bd 380e ddbd
00000130: 69bc e2bd 9b98 3a3e 5e9c 91bd 9bc1 28bd
00000140: 3abd 08bd a23a 84be 4370 84bd a910 69bb
00000150: 42b4 15be 5750 533e 54c4 fabd 270a 8cbc
00000160: ef95 163d d6e5 023e 8f37 9cbd 8729 493c
00000170: bb38 65be f77e 2c3d d8d0 83bc 9288 4b3d
00000180: 073c 15be 0c95 3c3e a250 1f3d 66c7 fd3d
00000190: 8eae 913d d598 353e 9c52 5a3d 9eb6 a6bd
000001a0: b722 aa3c ba39 0dbe c0df 053e 8583 fb3d
000001b0: fb83 91be 74f2 ecbd 6dc3 03be da39 2f3d
000001c0: cade 4ebe 5924 53be e220 0fbe f45a cabd
000001d0: 281b 263c 7751 933d 6225 3d3d afd6 da3d
000001e0: 4d20 eeba b235 29bd 842d b63d d5f1 02be
000001f0: d0cd afbc ec50 b9bd ea46 dc3c 2b8f 19be
00000200: cb70 12be e6a5 74be 290c e4bc 33d7 5e3d
00000210: 6b4d 33be 2bae 2fbd 105f 12be 2eea fdbc
00000220: 324b 1abe e66d e13d 5282 42be f37b 03be
00000230: ef35 a93b 0d9f 18be 329f 4c3e 283d 8c3a
00000240: 277e fb3c a395 dd3d c0bb a3bd 4d2b 05be
00000250: ba9e 16be d9dc 03be 2161 273b 0822 d43d
00000260: 3747 c3bc b09c 413e d236 49bd 270c ff3d
00000270: 6d5e f73d f67a 883e 88a7 46bd d621 54be
00000280: 5edf 373e a9e6 cb3c 1c67 293e da08 893e
00000290: 33aa e53c 2d14 fa3d e502 9fbd 4383 3dbe
000002a0: a679 e23d ae72 0d3c d207 5dbd 890b 4b3c
000002b0: 3d22 093e 5559 9b3e df3e 2e3d 8e6e b43e
000002c0: 6590 22bc de9f 4e3d c8bd 80bc d40b 3dbe
000002d0: 0aff 0fbe 5dee 04be ac52 dc3d c9cb 293d
000002e0: 8a43 2bbe e319 7bbc 35de 733d 2c92 273e
000002f0: 5f44 853b 739d 8ebd 1c08 40be 593a 533e
00000300: bd2f c43c 03e6 e93d 68f4 50be 3765 2d3d
00000310: ee0d 403c ac6f 7fbb 4157 da3d 01ca d3bc
00000320: e0c3 b73b b6cd 1fbe 60fc cabd 1187 353d
00000330: 31ea 923d 30f4 4abe 890e 2ebd 374e 37be
00000340: 75a1 59bb 0c36 2d3e 34fb 853e 6227 8dbd
00000350: 6c6d 183e 1ac9 54bd 829b 34be 1c81 3fbe
00000360: 9164 73be 6194 82bd fe3d 9b3d 9809 cebd
00000370: f3c3 1dbe e987 03be c8e7 59be 1013 843d
00000380: 0736 25be e6f0 c93d ccfa 9e3d d046 58be
00000390: f6a8 7e3e 8ce9 173d 26aa 0b3e a006 2b3e
000003a0: d724 08be ad29 35be 3fbd 92bd 92a6 38be
000003b0: 7fb1 993d fd30 483e 44bf 44bd d036 793e
000003c0: 9205 5c3e 0903 efbd 6dcb 5c3e fdb0 5e3d
000003d0: f407 a1bd d65c 693c 13ee b03d b3cc a4bd
000003e0: 5223 e03d 5c94 96bd 241c 473e d052 0cbc
000003f0: 9c67 1abe 80bf d2bc c93e 173e 8622 55bc

net.net.4.bias f4 [100]
-0.1000291 -0.072023906 -0.09598418 0.017713442 -0.03774797 0.01090778 0.048742983 -0.0930414
-0.106209144 0.08718582 0.08350421 0.10670353 0.09374326 0.04015974 -0.025348295 0.022141697
-0.012191474 -0.03531767 -0.058986556 0.07464391 0.033753436 -0.005259617 -0.08198445 0.01338435
0.03731598 -0.039267197 -0.056885216 0.15609176 0.025809474 0.039288644 0.040027723 -0.008975702
0.03812809 -0.061565824 0.101817444 0.2612881 -0.07307747 0.027878834 0.17439401 -0.061591197
0.07169915 0.3202976 -0.005564853 -0.025873566 0.13879736 0.057357095 -0.042940475 -0.05434485
0.004321922 0.18897395 0.3268319 -0.11749052 -0.045745537 -0.055634864 -0.025667202 0.15687032
0.01186066 -0.047732756 -0.04300394 0.009909491 0.012510551 0.039797258 -0.08883307 -0.013566831
-0.081360176 0.02544581 -0.15483432 -0.10170055 0.0784665 -0.037586175 -0.070801765 0.012773139
0.0009403381 -0.068685174 -0.036486547 0.1610084 0.16827776 -0.093689635 0.11043085 0.0063137594
0.26393977 -0.0005723569 0.043517124 0.09801147 0.14071374 -0.07781385 0.17696804 -0.061479013
-0.030081429 -0.16332297 -0.056866188 0.023477577 0.10041061 -0.013282879 0.045585025 0.29542646
-0.018342901 -0.105116524 -0.06127027 -0.043411136
00000000: 0fdc ccbd 4581 93bd 5b93 c4bd c81b 913c
00000010: 9e9d 1abd 8cb6 323c b9a6 473d 7d8c bebd
00000020: 2e84 d9bd 7b8e b23d 4104 ab3d 6187 da3d
00000030: 77fc bf3d 8a7e 243d 3aa7 cfbc 8162 b53c
00000040: c0be 47bc 43a9 10bd e39b 71bd e8de 983d
00000050: 0b41 0a3d de58 acbb 77e7 a7bd 084a 5b3c
00000060: a4d8 183d a4d6 20bd 7900 69bd 85d6 1f3e
00000070: 646e d33c 21ed 203d 1cf4 233d d30e 13bc
00000080: 332c 1c3d 722c 7cbd aa85 d03d 8ec7 853e
00000090: a4a9 95bd 2762 e43c 5894 323e 0d47 7cbd
000000a0: 01d7 923d 0cfe a33e 5f59 b6bb cdf4 d3bc
000000b0: e520 0e3e 46ef 6a3d 5ae2 2fbd b598 5ebd
000000c0: e99e 8d3b 6382 413e 8356 a73e df9e f0bd
000000d0: ac5f 3bbd 62e1 63bd 0644 d2bc 9da2 203e
000000e0: 3753 423c 6c83 43bd e624 30bd 6b5b 223c
000000f0: 0ef9 4c3c 7302 233d 1dee b5bd 6a47 5ebc
00000100: 2aa0 a6bd bb73 d03c e38c 1ebe 6148 d0bd
00000110: 0bb3 a03d f6f3 19bd 8400 91bd 6e46 513c
00000120: 0681 763a d0aa 8cbd eb72 15bd 63df 243e
00000130: 0151 2c3e 5ae0 bfbd 9229 e23d a7e3 ce3b
00000140: 1d23 873e 390a 16ba 033f 323d 3dba c83d
00000150: 4317 103e de5c 9fbd 1c37 353e 6bd1 7bbd
00000160: 546d f6bc 233e 27be 85ec 68bd 0c54 c03c
00000170: 14a4 cd3d 6fa0 59bc 5db7 3a3d 2342 973e
00000180: da43 96bc 5547 d7bd 89f6 7abd e0cf 31bd

net.net.6.weight f4 [100, 100]
-0.1763752 -0.23903975 -0.10644264 0.11139682 0.13480805 0.13966486 0.1675066 -0.06476892
0.04446489 0.14790574 0.2268571 -0.014448522 -0.15566775 -0.09046863 0.19375144 -0.17507921
0.040315665 0.22040363 -0.053955246 0.1334603 0.21799792 0.12637858 0.112506345 -0.10288957
-0.15968107 0.027327914 -0.13875897 0.21634005 0.10216802 0.088718176 -0.061277963 0.14767535
-0.09537397 -0.27069464 -0.0077864346 0.19586603 -0.1790324 0.00829447 -0.12305602 0.056589603
0.094384745 -0.10691224 0.07478844 -0.05643546 0.28516248 -0.17752333 0.016923657 -0.011076687
0.06730013 0.06677296 0.27242187 -0.17043212 -0.12771864 0.0065990854 -0.05418007 -0.21873386
0.006077816 -0.027209938 -0.27528605 -0.15099245 -0.14998889 -0.29252476 -0.121076494 0.09866579
-0.2048267 0.08287218 -0.059002873 -0.30598733 0.022097964 0.11636831 0.20110053 -0.105699256
0.11466099 0.14253777 0.2578801 0.11336565 -0.14163053 -0.110553876 -0.154707 -0.042085707
0.05635569 -0.077532016 0.034540467 -0.01051359 -0.1385366 -0.2717624 0.1669752 -0.10701769
0.22529075 0.0028573815 -0.11669687 -0.056341738 0.23487507 -0.03118286 -0.012255935 0.09997031
-0.15892397 -0.10361703 -0.04178285 -0.1428165 -0.059679266 -0.038194668 0.06777119 0.01798206
-0.023824167 -0.16575392 0.14401028 0.0064799837 -0.092796035 -0.1541888 -0.1265607 -0.031758614
0.10525259 -0.004175592 -0.08436646 -0.056468654 -0.09200049 -0.038536273 0.19135979 0.040247403
0.13588595 -0.013611957 -0.16620268 0.015584138 -0.13937487 0.1037532 -0.11129132 0.1711816
0.009842492 -0.028924167 -0.13109963 0.036603976 -0.17154217 -0.18487273 0.09077535 0.057815757
0.09540116 -0.0088651115 -0.18709485 -0.21739975 0.11344276 0.067375824 0.027597077 0.005602863
0.18284844 -0.115670465 -0.035179693 0.08774074 -0.049562763 -0.009947795 -0.051896043 -0.021607846
0.1229409 -0.1603833 -0.14530267 0.10339312 -0.06480737 0.15992226 -0.078116946 -0.15321557
-0.1255056 0.13704228 -0.076717705 0.16867737 -0.108062774 -0.00043218187 -0.008162209 0.052409884
0.011041202 0.09137095 0.13160758 0.05344606 -0.10851173 -0.0773785 -0.10842476 0.1521249
-0.025816524 -0.11085415 0.032501202 0.14417794 -0.047044173 0.072470695 -0.029406287 0.057504658
-0.07259791 -0.021628281 0.09428021 0.049493015 -0.10957061 -0.13570148 0.07580323 0.05422462
0.047639426 -0.053884983 -0.09763736 -0.032255307 -0.124317296 -0.123475954 -0.016950438 0.039971527
0.18299846 -0.1956746 0.18027285 0.01458764 0.1034505 -0.18164249 0.2194651 0.023266785
-0.18577947 -0.04734446 0.10749628 0.124338865 -0.085234106 0.13571815 0.09054272 0.20870101
0.19140828 0.08717081 -0.02623344 0.07380365 0.00699219 -0.0118310945 -0.13006005 0.080606356
-0.0635227 -0.03760299 0.3063669 0.1001924 0.069117926 -0.093645826 -0.03658069 -0.335897
-0.012534734 -0.06395688 -0.033139396 0.29088274 0.10200243 -0.04438362 0.21651612 -0.0998033
-0.265764 0.12882116 0.15882227 0.10386912 -0.18674698 0.0109179 0.1580834 -0.041728895
0.03179234 -0.021851275 0.035447188 0.112620614 0.096971154 -0.14141276 -0.17234232 0.0028592618
00000000: b39b 34be d6c6 74be 99fe d9bd 0424 e43d
00000010: 1f0b 0a3e 4e04 0f3e da86 2b3e 91a5 84bd
00000020: d120 363d 9a74 173e 3a4d 683e 7eb9 6cbc
00000030: 5e67 1fbe 9e47 b9bd c766 463e f747 33be
00000040: 0a22 253d 7db1 613e 2d00 5dbd d1a9 083e
00000050: d93a 5f3e 6369 013e ba69 e63d c4b7 d2bd
00000060: 6f83 23be cade df3c d516 0ebe 3f88 5d3e
00000070: 783d d13d e0b1 b53d 9afe 7abd 3538 173e
00000080: 6e53 c3bd 7d98 8abe 5925 ffbb 1b91 483e
00000090: 4554 37be 87e5 073c cb04 fcbd 80ca 673d
000000a0: ca4c c13d cef4 dabd ae2a 993d de28 67bd
000000b0: d100 923e adc8 35be 7ba3 8a3c fe7a 35bc
000000c0: a7d4 893d 43c0 883d e17a 8b3e c285 2ebe
000000d0: adc8 02be 243d d83b eceb 5dbd c5fb 5fbe
000000e0: 6a28 c73b 60e7 debc 4bf2 8cbe c49d 1abe
000000f0: b096 19be cec5 95be f4f6 f7bd 4a11 ca3d
00000100: 17be 51be e4b8 a93d ffac 71bd 5faa 9cbe
00000110: ca06 b53c 8252 ee3d 4ced 4d3e da78 d8bd
00000120: 62d3 ea3d 6cf5 113e dc08 843e 402c e83d
00000130: 9807 11be 126a e2bd 836b 1ebe 1062 2cbd
00000140: 39d5 663d 1bc9 9ebd 4e7a 0d3d 3141 2cbc
00000150: 8adc 0dbe 7124 8bbe 8cfb 2a3e 172c dbbd
00000160: 9eb2 663e e842 3b3b c5fe eebd 98c6 66bd
00000170: 1783 703e 3273 ffbc 1ecd 48bc 3cbd cc3d
00000180: f7bc 22be 2a35 d4bd 7e24 2bbd 7d3e 12be
00000190: 3f72 74bd 0372 1cbd 9fcb 8a3d 1d4f 933c
000001a0: e62a c3bc 65bb 29be 6e77 133e 0b56 d43b
000001b0: d90b bebd abe3 1dbe 2199 01be 5215 02bd
000001c0: ab8e d73d 68d3 88bb 53c8 acbd ad4b 67bd
000001d0: c16a bcbd 36d8 1dbd d2f3 433e 76da 243d
000001e0: b025 0b3e b004 5fbc 0931 2abe 9d54 7f3c
000001f0: 49b8 0ebe 8f7c d43d b4ec e3bd 3b4a 2f3e
00000200: 6742 213c 60f2 ecbc fb3e 06be 0dee 153d
00000210: c0a8 2fbe 474f 3dbe 6de8 b93d 37d0 6c3d
00000220: af61 c33d f93e 11bc cb95 3fbe 0a9e 5ebe
00000230: ae54 e83d 56fc 893d 4413 e23c 3998 b73b
00000240: 9f3c 3b3e a3e4 ecbd 9518 10bd 6bb1 b33d
00000250: 5302 4bbd 14fc 22bc f290 54bd f002 b1bc
00000260: 70c8 fb3d 853b 24be 39ca 14be c6bf d33d
00000270: bab9 84bd a9c2 233e c7fb 9fbd 8be4 1cbe
00000280: 8a84 00be d054 0c3e 2c1e 9dbd c3b9 2c3e
00000290: 0450 ddbd 7896 e2b9 c9ba 05bc bfab 563d
000002a0: 28e6 343c b120 bb3d 23c4 063e 41ea 5a3d
000002b0: 663b debd 9e78 9ebd cd0d debd a1c6 1b3e
000002c0: 2d7d d3bc 8007 e3bd fb1f 053d 62a3 133e
000002d0: 64b1 40bd 846b 943d 74e5 f0bc 018a 6b3d
000002e0: 37ae 94bd cb2d b1bc fc15 c13d 30b9 4a3d
000002f0: 8e66 e0bd 54f5 0abe b93e 9b3d a31a 5e3d
00000300: 8f21 433d 80b6 5cbd 19f6 c7bd 241e 04bd
00000310: 119a febd f6e0 fcbd a5db 8abc 2fb9 233d
00000320: f363 3b3e ec5e 48be 7299 383e ff00 6f3c
00000330: dbdd d33d 7d00 3abe 76bb 603e fc99 be3c
00000340: f93c 3ebe 44ec 41bd 0227 dc3d 60a5 fe3d
00000350: 388f aebd b3f9 0a3e 766e b93d b8b5 553e
00000360: 8800 443e 9c86 b23d 83e7 d6bc 5e26 973d
00000370: be1e e53b 35d7 41bc 762e 05be f214 a53d
00000380: 3018 82bd 9805 1abd 1fdc 9c3e ac31 cd3d
00000390: b38d 8d3d 62c9 bfbd a2d5 15bd b1fa abbe
000003a0: 7c5e 4dbc d3fb 82bd 2dbd 07bd 95ee 943e
000003b0: a6e6 d03d 99cb 35bd 67b6 5d3e ac65 ccbd
000003c0: 3812 88be b2e9 033e 4ea2 223e 55b9 d43d
000003d0: 9a3a 3fbe fee0 323c 9de0 213e ebeb 2abd
000003e0: af38 023d 7201 b3bc 1231 113d a3a5 e63d
000003f0: d098 c63d 82ce 10be 817a 30be 7462 3b3b

net.net.6.bias f4 [100]
0.18527113 0.050308216 0.062037542 0.064496525 0.015723452 0.12532012 0.22866954 0.007801737
0.0955161 0.02118903 0.06484706 0.07737104 0.10789808 0.042072196 0.02345305 0.23619518
-0.0051960815 0.17329648 0.018621458 -0.014092398 0.11776993 0.037722547 -0.023029195 -0.077119194
0.027533336 -0.017714746 0.01637037 -0.021487525 -0.021730216 -0.017628608 -0.034593288 0.04262592
0.03161659 -0.06611614 0.081639774 0.030510748 0.015931116 0.011734609 -0.03166626 -0.0016934173
-0.031760257 0.039539415 0.14959903 -0.028367523 -0.14819074 -0.04562068 -0.024731733 -0.012057463
-0.01718416 -0.0026735899 0.17969467 0.04687231 -0.018129123 0.055808384 0.083914354 0.007057104
0.011708247 -0.07568743 -0.015855458 0.08315749 -0.0067774304 0.12814423 0.032182977 -0.037066966
0.017728914 -0.038553998 0.0062954794 -0.052740216 0.079110496 0.11272031 0.016451627 0.018009977
0.013391191 0.11065137 0.01854594 0.03816293 0.20287104 -0.059845433 -0.0064060325 0.020857954
-0.052425493 -0.10127508 0.044625953 -0.028900014 0.18300493 0.06876876 0.11190789 0.03290529
-0.06575043 -0.03401735 0.22687632 0.06459777 0.10329786 -0.0368891 0.17520656 -0.116364375
0.019991452 0.07425943 0.21495587 0.046986397
00000000: b7b7 3d3e fd0f 4e3d 141b 7e3d c116 843d
00000010: 78ce 803c eb53 003e 5928 6a3e b7a5 ff3b
00000020: f29d c33d 9e94 ad3c 89ce 843d b574 9e3d
00000030: abf9 dc3d e553 2c3d 9c20 c03c 26dd 713e
00000040: e443 aabb a274 313e 078c 983c cde3 66bc
00000050: 5c31 f13d f582 1a3d b9a7 bcbc abf0 9dbd
00000060: 978d e13c 841e 91bc 271b 863c 9b06 b0bc
00000070: 9103 b2bc df69 90bc b1b1 0dbd 8498 2e3d
00000080: 6680 013d e667 87bd c132 a73d adf1 f93c
00000090: f981 823c 8442 403c 7bb4 01bd a8f5 ddba
000000a0: 0b17 02bd 15f4 213d 7d30 193e 0263 e8bc
000000b0: 50bf 17be c0dc 3abd 349a cabc aa8c 45bc
000000c0: ccc5 8cbc 6537 2fbb e101 383e 2efd 3f3d
000000d0: 8783 94bc 5597 643d 4adb ab3d 473f e73b
000000e0: f2d3 3f3c 0302 9bbd 4ee3 81bc 794e aa3d
000000f0: 3515 debb 3e38 033e 4cd2 033d 88d3 17bd
00000100: 3a3c 913c ccea 1dbd 4f4a ce3b 2006 58bd
00000110: af04 a23d e8d9 e63d 90c5 863c a989 933c
00000120: ba66 5b3c 2f9d e23d a8ed 973c bc50 1c3d
00000130: 6dbd 4f3e 7c20 75bd b2e9 d1bb 4dde aa3c
00000140: 1dbc 56bd 4f69 cfbd b4c9 363d b9bf ecbc
00000150: a565 3b3e a3d6 8c3d f72f e53d b3c7 063d
00000160: 29a8 86bd c755 0bbd 4452 683e d64b 843d
00000170: d48d d33d 0619 17bd 5969 333e 7250 eebd
00000180: 1dc5 a33c 5415 983d 641d 5c3e cf74 403d

net.net.8.weight f4 [10, 100]
-0.29188305 -0.08322316 -0.284091 0.05975056 0.13909213 -0.22315966 0.17022648 -0.13032953
-0.2610841 0.016637977 -0.19635797 -0.3897613 -0.30727267 0.1419972 0.3865619 -0.20304006
-0.41566613 -0.18963099 0.21056229 0.48397386 -0.25251746 -0.028004024 -0.20201845 -0.24558824
-0.19909272 -0.10395025 0.46794552 0.043996148 -0.14422657 -0.19766444 0.18436518 -0.107885644
-0.36138645 0.34878162 -0.07814704 0.08996741 0.11719651 -0.3190649 0.16697595 0.045936573
0.2742005 -0.12418285 -0.4679419 0.19118445 0.01571801 -0.2433652 0.22599071 -0.17159358
0.19724493 0.10915007 0.4441927 0.20029432 -0.1539267 -0.030121528 -0.032154318 -0.14210856
-0.010106324 -0.034793068 0.1873515 0.03240849 -0.14018509 -0.12730522 0.032370947 -0.20270658
-0.34505895 0.16884688 -0.04287844 0.2350497 0.1419854 0.5320459 -0.20114556 -0.17212169
-0.04367897 0.07381231 -0.27489507 0.40504727 -0.012299287 0.14826791 0.45567426 0.49592352
-0.18810959 -0.0036842665 -0.2575642 0.02427271 -0.068645656 -0.25444338 -0.27361774 -0.20745549
0.08247834 0.037496623 -0.29641294 -0.09024513 -0.07125018 0.10146435 -0.32018676 -0.06744511
-0.19547626 -0.127835 -0.032564633 -0.29104993 0.16271581 0.06520016 -0.2119712 -0.043175206
-0.23320237 -0.16350342 -0.42330134 0.59306586 -0.049225736 -0.28577152 -0.015539093 0.13019334
-0.022407565 -0.4457226 -0.2712442 -0.0701316 -0.2819155 0.31214082 -0.017548615 -0.08753301
-0.31838536 0.22291023 -0.20879947 0.57720095 -0.010097639 -0.042435326 -0.2008715 0.008412605
-0.19826907 -0.029282114 0.17050672 -0.22986338 0.30811688 0.13801412 -0.19583414 -0.21521758
0.08282272 0.58665717 0.13839589 0.14647308 0.057875652 -0.03391376 0.13855413 -0.10498216
-0.26983082 0.63049 0.20400608 0.19437751 0.18009087 -0.30855918 -0.48670217 -0.23616931
0.104439996 -0.09320963 -0.4129202 -0.3093837 -0.22972795 -0.09586725 -0.015806867 0.2156
-0.05007683 0.3023963 0.20056897 0.47367692 0.108266965 -0.13134256 -0.12437404 0.07661538
0.0504929 -0.41579717 -0.2602936 -0.20805664 0.19828852 0.017373612 -0.20945738 -0.22827698
-0.49901727 0.17306371 -0.28702846 -0.22899708 0.05836924 0.077464454 -0.23447622 0.15917699
-0.3952444 -0.22477475 -0.048650663 0.13752711 -0.0036057292 0.106085174 -0.2512452 0.056102633
-0.064570375 -0.21892707 -0.38031718 0.26051015 -0.09880915 -0.014522037 -0.39466044 0.20725837
0.39604157 0.26035953 -0.1842555 0.5910297 -0.19621636 0.14880094 0.436075 0.024418766
-0.4916352 -0.32509443 -0.03770262 -0.15115759 -0.30655184 0.34430787 0.3133505 0.06303853
-0.17082058 -0.31336203 -0.010326164 0.13186412 -0.0171697 -0.101231195 0.19759373 0.2400237
0.061567944 0.114553384 -0.058926784 0.035325512 -0.06986959 0.08547704 0.32295555 -0.023457488
0.40318584 0.15170181 0.16132517 0.08668578 0.043344706 -0.3116924 0.20547451 0.14688791
-0.2278407 0.27101815 -0.36303556 -0.13532388 0.13838463 -0.18672003 -0.11766576 -0.15139592
0.11648949 0.29888675 0.19240218 0.19254462 -0.10704232 0.29847452 -0.10312836 0.22766219
00000000: b271 95be e770 aabd 6074 91be 01bd 743d
00000010: 2b6e 0e3e f783 64be da4f 2e3e 1b75 05be
00000020: d1ac 85be 5e4c 883c 1012 49be cb8e c7be
00000030: d852 9dbe b767 113e 71eb c53e bce9 4fbe
00000040: 31d2 d4be a02e 42be a49d 573e 6ccb f73e
00000050: f849 81be b268 e5bc eddd 4ebe 7c7b 7bbe
00000060: f6de 4bbe dee3 d4bd 8e96 ef3e 4e35 343d
00000070: 21b0 13be 8c68 4abe 3aca 3c3e 26f3 dcbd
00000080: a507 b9be 8193 b23e 8e0b a0bd d540 b83d
00000090: b904 f03d 795c a3be befb 2a3e fd27 3c3d
000000a0: 0264 8c3e 9453 febd 1596 efbe dbc5 433e
000000b0: 0ec3 803c ba34 79be 1c6a 673e 3ab6 2fbe
000000c0: 93fa 493e 128a df3d 3a6d e33e f419 4d3e
000000d0: f69e 1dbe 6cc1 f6bc 3fb4 03bd e884 11be
000000e0: ff94 25bc 2d83 0ebd 12d9 3f3e c4be 043d
000000f0: ae8c 0fbe 4d5c 02be 6697 043d 5092 4fbe
00000100: 91ab b0be 32e6 2c3e 4ea1 2fbd deb0 703e
00000110: 9f64 113e 2934 083f 1af9 4dbe ab40 30be
00000120: b8e8 32bd e92a 973d 0cbf 8cbe 5b62 cf3e
00000130: f382 49bc 8bd3 173e 234e e93e b0e9 fd3e
00000140: cd9f 40be bc73 71bb 74df 83be 90d7 c63c
00000150: 1896 8cbd 6746 82be a017 8cbe 366f 54be
00000160: 67ea a83d 0f96 193d 70c3 97be 70d2 b8bd
00000170: 9deb 91bd 8bcc cf3d 85ef a3be a920 8abd
00000180: ee2a 48be 2ee7 02be 7e62 05bd 7f04 95be
00000190: f99e 263e a987 853d fa0e 59be 7cd8 30bd
000001a0: 9acc 6ebe 716d 27be f4ba d8be 2ad3 173f
000001b0: eda0 49bd a550 92be ae97 7ebc 6751 053e
000001c0: 1290 b7bc c135 e4be 85e0 8abe 28a1 8fbd
000001d0: 3a57 90be ecd0 9f3e 1dc2 8fbc 8244 b3bd
000001e0: 6803 a3be 9442 643e 87cf 55be 71c3 133f
000001f0: 9170 25bc aad0 2dbd 42b1 4dbe 06d5 093c
00000200: 0c07 4bbe 0be1 efbc 5099 2e3e 4e61 6bbe
00000210: 7fc1 9d3e 9353 0d3e bf88 48be ff61 5cbe
00000220: f59e a93d 2a2f 163f a7b7 0d3e 0afd 153e
00000230: 050f 6d3d 28e9 0abd 22e1 0d3e e300 d7bd
00000240: 4427 8abe cb67 213f f8e6 503e e60a 473e
00000250: be69 383e 78fb 9dbe 0731 f9be 5ed6 71be
00000260: a3e4 d53d b1e4 bebd 476a d3be 8a67 9ebe
00000270: ce3d 6bbe 0c56 c4bd 677d 81bc 3fc6 5c3e
00000280: 5d1d 4dbd b0d3 9a3e f461 4d3e c885 f23e
00000290: 12bb dd3d aa7e 06be d1b7 febd 86e8 9c3d
000002a0: a5d1 4e3d 5ee3 d4be 3445 85be cd0c 55be
000002b0: 250c 4b3e 1b53 8e3c ff7b 56be 71c1 69be
000002c0: 317f ffbe 9d37 313e 65f5 92be 367e 6abe
000002d0: 9614 6f3d afa5 9e3d 891a 70be 4bff 223e
000002e0: 795d cabe 5a2b 66be eb45 47bd e8d3 0c3e
000002f0: 194e 6cbb 2f43 d93d 36a3 80be e0cb 653d
00000300: 793d 84bd 6b2e 60be efb8 c2be 9661 853e
00000310: 745c cabd d6ed 6dbc ef10 cabe 8a3b 543e
00000320: f6c5 ca3e d84d 853e 79ad 3cbe b94d 173f
00000330: f1ec 48be 465f 183e 3945 df3e dd09 c83c
00000340: 9cb7 fbbe c772 a6be 106e 1abd 0ec9 1abe
00000350: 5df4 9cbe 1f49 b03e 7a6f a03e 581a 813d
00000360: 97eb 2ebe fd70 a0be 122f 29bc 6307 073e
00000370: 78a7 8cbc 4d52 cfbd 0356 4a3e c6c8 753e
00000380: ab2e 7c3d f79a ea3d 365d 71bd 7cb1 103d
00000390: ca17 8fbd 960e af3d 6e5a a53e eb29 c0bc
000003a0: 606e ce3e b857 1b3e 6d32 253e 5088 b13d
000003b0: 388a 313d 2596 9fbe e967 523e c969 163e
000003c0: 134f 69be e4c2 8a3e ccdf b9be 5892 0abe
000003d0: b3b4 0d3e 8933 3fbe bffa f0bd 8807 1bbe
000003e0: 0b92 ee3d af07 993e 1405 453e 6b2a 453e
000003f0: 0139 dbbd a7d1 983e f634 d3bd 4720 693e

net.net.8.bias f4 [10]
-0.15813553 -0.13297704 0.085715644 -0.14421645 0.13098516 -0.053981267 -0.10834676 -0.088813126
0.3383806 0.13139096
00000000: 48ee 21be 222b 08be af8b af3d 7aad 13be
00000010: f920 063e 761b 5dbd e8e4 ddbd a8e3 b5bd
00000020: 3940 ad3e 5a8b 063e
