GradientEpisodicMemory/results/gem_mnist_rotations.pt_23_11.pt (torch_old, 526812 bytes, 16 tensors)

tensor f4 [41]
0	0x00000000	0.0
1	0x00000000	0.0
2	0x00000000	0.0
3	0x3f800000	1.0
4	0x3f800000	1.0
5	0x40000000	2.0
6	0x40000000	2.0
7	0x40400000	3.0
8	0x40400000	3.0
9	0x40800000	4.0
10	0x40800000	4.0
11	0x40a00000	5.0
12	0x40a00000	5.0
13	0x40c00000	6.0
14	0x40c00000	6.0
15	0x40e00000	7.0
16	0x40e00000	7.0
17	0x41000000	8.0
18	0x41000000	8.0
19	0x41100000	9.0
20	0x41100000	9.0
21	0x41200000	10.0
22	0x41200000	10.0
23	0x41300000	11.0
24	0x41300000	11.0
25	0x41400000	12.0
26	0x41400000	12.0
27	0x41500000	13.0
28	0x41500000	13.0
29	0x41600000	14.0
30	0x41600000	14.0
31	0x41700000	15.0
32	0x41700000	15.0
33	0x41800000	16.0
34	0x41800000	16.0
35	0x41880000	17.0
36	0x41880000	17.0
37	0x41900000	18.0
38	0x41900000	18.0
39	0x41980000	19.0
40	0x41980000	19.0

tensor f4 [41, 20]
0	0x3ddcfaad	0.1079
1	0x3dcc63f1	0.0998
2	0x3dc49ba6	0.096
3	0x3db923a3	0.0904
4	0x3dbb98c8	0.0916
5	0x3dd94af5	0.1061
6	0x3de2eb1c	0.1108
7	0x3dd8e219	0.1059
8	0x3ddfd8ae	0.1093
9	0x3dd60419	0.1045
10	0x3dd8adac	0.1058
11	0x3dbe425b	0.0929
12	0x3da9fbe7	0.083
13	0x3de83e42	0.1134
14	0x3dfe9100	0.1243
15	0x3df41f21	0.1192
16	0x3df34d6a	0.1188
17	0x3e00d1b7	0.1258
18	0x3deb1c43	0.1148
19	0x3db923a3	0.0904
20	0x3f09d495	0.5384
21	0x3f0d21ff	0.5513
22	0x3f0cbfb1	0.5498
23	0x3efed289	0.4977
24	0x3edf2e49	0.4359
25	0x3ec6c227	0.3882
26	0x3e9eecc0	0.3104
27	0x3e84d014	0.2594
28	0x3e7020c5	0.2345
29	0x3e4710cb	0.1944
30	0x3e4ebee0	0.2019
31	0x3e4b4396	0.1985
32	0x3e4aa64c	0.1979
33	0x3e47fcb9	0.1953
34	0x3e581062	0.211
35	0x3e604189	0.219
36	0x3e60902e	0.2193
37	0x3e57c1be	0.2107
38	0x3e523a2a	0.2053
39	0x3e5a8588	0.2134
40	0x3f1ebee0	0.6201
41	0x3f1bf488	0.6092
42	0x3f17ced9	0.593
43	0x3eeac083	0.4585
44	0x3ec3126f	0.381
45	0x3ea76c8b	0.327
46	0x3e80902e	0.2511
47	0x3e5e9e1b	0.2174
48	0x3e4154ca	0.1888
49	0x3e19e83e	0.1503
50	0x3e191687	0.1495
51	0x3e19b3d0	0.1501
52	0x3e1288ce	0.1431
53	0x3e10ff97	0.1416
54	0x3e1f212d	0.1554
55	0x3e2cd9e8	0.1688
56	0x3e3f62b7	0.1869
57	0x3e37ced9	0.1795
58	0x3e3295ea	0.1744
59	0x3e39db23	0.1815
60	0x3f39999a	0.725
61	0x3f358106	0.709
62	0x3f32617c	0.6968
63	0x3f119653	0.5687
64	0x3eeb7803	0.4599
65	0x3ebe76c9	0.372
66	0x3e8425af	0.2581
67	0x3e54c986	0.2078
68	0x3e3559b4	0.1771
69	0x3e13404f	0.1438
70	0x3e1930be	0.1496
71	0x3e0ed917	0.1395
72	0x3e0d9e84	0.1383
73	0x3e0ebee0	0.1394
74	0x3e0faace	0.1403
75	0x3e18793e	0.1489
76	0x3e1ff2e5	0.1562
77	0x3e1f06f7	0.1553
78	0x3e39c0ec	0.1814
79	0x3e3afb7f	0.1826
80	0x3f2d844d	0.6778
81	0x3f31b08a	0.6941
82	0x3f2dbf48	0.6787
83	0x3f0dfa44	0.5546
84	0x3ee6a7f0	0.4505
85	0x3ebc6a7f	0.368
86	0x3e797247	0.2436
87	0x3e3bcd36	0.1834
88	0x3e191687	0.1495
89	0x3dc95183	0.0983
90	0x3dc95183	0.0983
91	0x3da6e979	0.0815
92	0x3da8240b	0.0821
93	0x3dad42c4	0.0846
94	0x3db126e9	0.0865
95	0x3dbfe5c9	0.0937
96	0x3dcc985f	0.0999
97	0x3dce3bcd	0.1007
98	0x3de31f8a	0.1109
99	0x3debedfa	0.1152
100	0x3f5573eb	0.8338
101	0x3f5a8c15	0.8537
102	0x3f5a3d71	0.8525
103	0x3f4205bc	0.7579
104	0x3f25d639	0.6478
105	0x3f0c6a7f	0.5485
106	0x3ec89a02	0.3918
107	0x3e9d07c8	0.3067
108	0x3e809d49	0.2512
109	0x3e2617c2	0.1622
110	0x3e2872b0	0.1645
111	0x3e18fc50	0.1494
112	0x3e113405	0.1418
113	0x3e0b5dcc	0.1361
114	0x3e0af4f1	0.1357
115	0x3e1566cf	0.1459
116	0x3e1b7176	0.1518
117	0x3e1cfaad	0.1533
118	0x3e393dd9	0.1809
119	0x3e404ea5	0.1878
120	0x3f5381d8	0.8262
121	0x3f5b7176	0.8572
122	0x3f5c1bda	0.8598
123	0x3f4cc63f	0.7999
124	0x3f305bc0	0.6889
125	0x3f1851ec	0.595
126	0x3edac711	0.4273
127	0x3ea3bcd3	0.3198
128	0x3e72fec5	0.2373
129	0x3e0e075f	0.1387
130	0x3e0e8a72	0.1392
131	0x3e0154ca	0.1263
132	0x3df3eab3	0.1191
133	0x3e0154ca	0.1263
134	0x3e039581	0.1285
135	0x3e0f5c29	0.14
136	0x3e170a3d	0.1475
137	0x3e19e83e	0.1503
138	0x3e34f0d8	0.1767
139	0x3e3e5c92	0.1859
140	0x3f4e0ded	0.8049
141	0x3f555326	0.8333
142	0x3f5710cb	0.8401
143	0x3f4f27bb	0.8092
144	0x3f3ecbfb	0.7453
145	0x3f2978d5	0.662
146	0x3f013a93	0.5048
147	0x3ed0d845	0.4079
148	0x3ea7bb30	0.3276
149	0x3e2353f8	0.1595
150	0x3e22680a	0.1586
151	0x3e027525	0.1274
152	0x3deb50b1	0.1149
153	0x3dddcc64	0.1083
154	0x3dd1b717	0.1024
155	0x3dd119ce	0.1021
156	0x3dca8c15	0.0989
157	0x3dcf41f2	0.1012
158	0x3ded288d	0.1158
159	0x3dfa43fe	0.1222
160	0x3f4e075f	0.8048
161	0x3f57e910	0.8434
162	0x3f5a0903	0.8517
163	0x3f5ced91	0.863
164	0x3f538866	0.8263
165	0x3f440b78	0.7658
166	0x3f1cc63f	0.6124
167	0x3ef61134	0.4806
168	0x3ec4b5dd	0.3842
169	0x3e523a2a	0.2053
170	0x3e43afb8	0.1911
171	0x3e20c49c	0.157
172	0x3e04b5dd	0.1296
173	0x3ded5cfb	0.1159
174	0x3de5c91d	0.1122
175	0x3de0ded3	0.1098
176	0x3de3bcd3	0.1112
177	0x3df58e22	0.1199
178	0x3e08ce70	0.1336
179	0x3e1119ce	0.1417
180	0x3f536e2f	0.8259
181	0x3f5afb7f	0.8554
182	0x3f5e0ded	0.8674
183	0x3f5d6388	0.8648
184	0x3f55f06f	0.8357
185	0x3f4652bd	0.7747
186	0x3f267a10	0.6503
187	0x3f0d288d	0.5514
188	0x3ef03afb	0.4692
189	0x3e8353f8	0.2565
190	0x3e7f1412	0.2491
191	0x3e3b7e91	0.1831
192	0x3e104817	0.1409
193	0x3dff9724	0.1248
194	0x3df73190	0.1207
195	0x3dfb4a23	0.1227
196	0x3e008312	0.1255
197	0x3e0779a7	0.1323
198	0x3e2de00d	0.1698
199	0x3e4154ca	0.1888
200	0x3f595810	0.849
201	0x3f60aa65	0.8776
202	0x3f6460aa	0.8921
203	0x3f67c1be	0.9053
204	0x3f6381d8	0.8887
205	0x3f594af5	0.8488
206	0x3f3a6b51	0.7282
207	0x3f1f34d7	0.6219
208	0x3f0631f9	0.5242
209	0x3e8bac71	0.2728
210	0x3e8c2268	0.2737
211	0x3e4d1b71	0.2003
212	0x3e2bd3c3	0.1678
213	0x3e1f8a09	0.1558
214	0x3e1e69ad	0.1547
215	0x3e1e00d2	0.1543
216	0x3e1de69b	0.1542
217	0x3e20902e	0.1568
218	0x3e37b4a2	0.1794
219	0x3e333333	0.175
220	0x3f4adaba	0.7924
221	0x3f52b6ae	0.8231
222	0x3f58c7e3	0.8468
223	0x3f5acd9f	0.8547
224	0x3f570a3d	0.84
225	0x3f4ea4a9	0.8072
226	0x3f356042	0.7085
227	0x3f1d566d	0.6146
228	0x3f04fdf4	0.5195
229	0x3e7dd97f	0.2479
230	0x3e724745	0.2366
231	0x3e1e69ad	0.1547
232	0x3e08e8a7	0.1337
233	0x3e03e426	0.1288
234	0x3e03126f	0.128
235	0x3e11eb85	0.1425
236	0x3e212d77	0.1574
237	0x3e37ced9	0.1795
238	0x3e4c985f	0.1998
239	0x3e4ce704	0.2001
240	0x3f595e9e	0.8491
241	0x3f60cb29	0.8781
242	0x3f64ea4b	0.8942
243	0x3f68c7e3	0.9093
244	0x3f65b574	0.8973
245	0x3f6182aa	0.8809
246	0x3f4d4952	0.8019
247	0x3f35f6fd	0.7108
248	0x3f1dab9f	0.6159
249	0x3ea8ce70	0.3297
250	0x3e9f212d	0.3108
251	0x3e42de01	0.1903
252	0x3e0ccccd	0.1375
253	0x3df2e48f	0.1186
254	0x3ddfa440	0.1092
255	0x3df14120	0.1178

net.net.0.weight f4 [100, 784]
0	0x3d513c38	0.05108282
1	0x3cb55c44	0.022138722
2	0xbc95abfc	-0.018270485
3	0xbd91d541	-0.07120753
4	0xbd203598	-0.03911361
5	0xbd8f0c79	-0.06984801
6	0xbd9d70c3	-0.07687523
7	0x3d2c455c	0.042058334
8	0xbd2a3c92	-0.04156167
9	0x3c9b7469	0.018976407
10	0xbd488d05	-0.04896261
11	0xbd87e5e1	-0.06635643
12	0xbd54f894	-0.051994875
13	0xbd7dc9eb	-0.061960142
14	0xbc2527b2	-0.010080265
15	0xbe0342a5	-0.12818392
16	0x3c38a4a0	0.011269718
17	0xbd96c733	-0.07362213
18	0xbd887bab	-0.06664213
19	0xbd320974	-0.043466046
20	0xbd9922c0	-0.07477331
21	0xbd0e067e	-0.03467416
22	0xbd4ac40c	-0.04950337
23	0x3c0d0ea8	0.008609451
24	0x3d0b7dba	0.03405545
25	0x3d426928	0.047463566
26	0xb9be1900	-0.0003625825
27	0xbb3246a0	-0.002720274
28	0x3d907634	0.070537955
29	0x3bee98c0	0.007281393
30	0x3cd247d4	0.025669016
31	0x3d972902	0.073808685
32	0x3bc7f120	0.0061017424
33	0x3921de18	0.00015436893
34	0xbc0819a4	-0.008306894
35	0xbd5c9cb5	-0.053860385
36	0xbd122558	-0.035680145
37	0x3c2c5722	0.010518821
38	0x3e024fc5	0.12725742
39	0x3dc034a4	0.093850404
40	0xbdc64db3	-0.09682789
41	0xbca6eee4	-0.020377584
42	0xbe0aae0a	-0.13542953
43	0xbdd81f25	-0.10552815
44	0xbcae5f4b	-0.021285674
45	0xbd0ad334	-0.033892825
46	0xbda9787e	-0.08274935
47	0xbd41290f	-0.047158297
48	0x3dab5268	0.08365327
49	0xbced048f	-0.028932838
50	0xbd546d3b	-0.051861983
51	0xbd9a3227	-0.07529097
52	0xbd73dbbd	-0.05953573
53	0x3c994b00	0.01871252
54	0x3d8127d0	0.06306422
55	0xbda578c0	-0.08079672
56	0xb8cf1000	-9.8735094e-05
57	0x3d85f750	0.06541312
58	0xbda85460	-0.08219218
59	0x3d40a678	0.047033757
60	0xbd9dca0d	-0.07704554
61	0x3d7c6eeb	0.061629217
62	0x3c8a2f22	0.016868178
63	0xbdaadc70	-0.08342826
64	0xbd237903	-0.039910328
65	0xbdb4a297	-0.08820074
66	0xbcb1df92	-0.021713052
67	0xbbff9e6b	-0.0078008673
68	0xbd9e1504	-0.07718852
69	0x3d3adc1b	0.045620065
70	0xbb0e3206	-0.0021697297
71	0xbe0a7415	-0.13520844
72	0xbd70fda9	-0.05883566
73	0xbc8a842c	-0.016908728
74	0x3db7191a	0.089403346
75	0x3da0eeb9	0.07858033
76	0x3dd10569	0.1020611
77	0xbd2e339c	-0.042529687
78	0x3d8aec9e	0.067834124
79	0x3be7826e	0.007065109
80	0xbb853792	-0.0040654624
81	0xbd3b687d	-0.045753945
82	0x3da1c858	0.07899541
83	0x3c9c5260	0.019082248
84	0x3be08120	0.0068513304
85	0xbd770eca	-0.06031684
86	0xbd8bc416	-0.0682451
87	0x3d0a9070	0.033829153
88	0x3d539255	0.051653225
89	0x3d10ca6e	0.035349302
90	0xbe0ff545	-0.14058407
91	0xbaebdd0b	-0.0017994953
92	0xbbcb5bfd	-0.006206034
93	0x3d9b06e7	0.07569676
94	0x3dd547b4	0.10414067
95	0x3d225fb8	0.039642066
96	0xbc00fdd1	-0.007873015
97	0x3d7834d9	0.060597274
98	0xbe36fbc6	-0.17869481
99	0xbdd4fef0	-0.10400188
100	0xbdc343df	-0.0953443
101	0xbd1785af	-0.036992725
102	0xbc9c5c7b	-0.019087067
103	0x3cc0633b	0.023484817
104	0x3d0a782d	0.033806015
105	0x3d83d840	0.06437731
106	0x3d7b58b7	0.061363902
107	0xbbe77761	-0.0070637916
108	0xbc7df1ca	-0.015499542
109	0x3cbca638	0.023028478
110	0x3caa368c	0.020777963
111	0x3d39ce4c	0.045362756
112	0xbd84ecca	-0.064904764
113	0xbda5abc3	-0.080894016
114	0x3ce68276	0.02813838
115	0x3c82bf45	0.015960345
116	0x3d5ab190	0.053391993
117	0xbda2fcb9	-0.07958359
118	0xbdd4e43a	-0.10395093
119	0x3d5e0a74	0.054209188
120	0xbcf0d416	-0.029398005
121	0x3de1bf01	0.11022759
122	0x3ddc25e4	0.107494146
123	0xbe15bca2	-0.14622739
124	0xbe2c5d3b	-0.1683244
125	0x3cab7557	0.020929975
126	0xbe5e18d3	-0.21689157
127	0xbd93d14e	-0.07217656
128	0xbe137ac0	-0.14402294
129	0xbe1286c3	-0.1430922
130	0xbdb44e98	-0.08804053
131	0xbdbcba6f	-0.09215247
132	0xbd7fb0ee	-0.062424593
133	0x3d6c34e6	0.057667635
134	0xbb3e67f2	-0.0029053655
135	0x3d25bcd3	0.04046328
136	0x3d086c65	0.033306498
137	0x3d8c73f8	0.06858057
138	0xbc04315a	-0.008068407
139	0xbd3c3849	-0.045952115
140	0xbd6bb552	-0.057545967
141	0xbd260166	-0.040528677
142	0x3d7bbc2d	0.061458755
143	0x3d85f3a3	0.06540611
144	0xbd9da7a8	-0.076979935
145	0xbdbde62c	-0.092724174
146	0xbd633d60	-0.055478454
147	0x3d216c79	0.03941009
148	0x3dc014b8	0.09378952
149	0x3e2baec9	0.16765894
150	0xbe0e30df	-0.1388583
151	0x3dac87da	0.08424349
152	0xbc8bf8fa	-0.017086495
153	0xbcb75f7b	-0.022384396
154	0xbe872bf2	-0.26400715
155	0xbea9d9fb	-0.33174118
156	0xbe4e4a45	-0.20145519
157	0xbe55af4d	-0.20867653
158	0xbe9f7f86	-0.3115198
159	0xbe3c4fda	-0.18389836
160	0xbdb0269b	-0.086011134
161	0xbd43b87a	-0.047783352
162	0xbe2aa84f	-0.16665767
163	0xbd53d37f	-0.05171537
164	0x3d54e13b	0.05197261
165	0x3d982aa5	0.07430009
166	0x3d83fde6	0.06444912
167	0x3c89365c	0.016749553
168	0xbd891ef1	-0.06695355
169	0xbd7cab2a	-0.061686672
170	0xbd611a1b	-0.054956537
171	0xbd5af7ea	-0.053459086
172	0xbd26f1b0	-0.040757835
173	0xbdf0d4f8	-0.117593706
174	0xbe0ede04	-0.1395188
175	0xbe03afb2	-0.12859991
176	0xbce3cc23	-0.0278073
177	0x3d85bb3a	0.06529851
178	0xbda77cc0	-0.08178091
179	0xbd99adb7	-0.075038366
180	0x3a35e001	0.0006937981
181	0xbea90142	-0.33008772
182	0xbec7ae83	-0.3900033
183	0xbe8c0997	-0.27351066
184	0xbdd364cf	-0.10321962
185	0xbdb0f89c	-0.086411685
186	0xbde66908	-0.11250502
187	0xbe1d0b0e	-0.15336248
188	0xbdf60273	-0.12012186
189	0xbda9fae3	-0.08299806
190	0xbcf775c3	-0.03020752
191	0xbd2f33bc	-0.042773947
192	0xbc17d28c	-0.009266507
193	0x3d94c62b	0.0726436
194	0x3d651f69	0.05593816
195	0xba477777	-0.0007609049
196	0x3d62c4a5	0.055363316
197	0x3c886fe0	0.016654909
198	0xbd9bacc7	-0.07601314
199	0x3cf557fa	0.029949177
200	0x3cd7fb41	0.026364924
201	0xbd6acf55	-0.057326633
202	0xbe2d34f9	-0.16914739
203	0xbdc7afd7	-0.09750336
204	0xbd38db6e	-0.04513114
205	0xbdf9acb4	-0.12191144
206	0x3caa0209	0.020752924
207	0x3d86a2e1	0.065740354
208	0xbe3b2f8a	-0.18279853
209	0xbed23716	-0.41057652
210	0xbeca8e98	-0.39561915
211	0xbec6f40f	-0.38858077
212	0xbe4cdb9d	-0.20005651
213	0xb9a11a7a	-0.0003072804
214	0xbdba1a97	-0.09087103
215	0xbe005890	-0.12533784
216	0xbd5710f4	-0.052506402
217	0x3e521462	0.20515588
218	0x3cc36681	0.023852589
219	0x3c8a7aee	0.01690432
220	0xbc6d9f99	-0.014503383
221	0xbcf88e72	-0.03034136
222	0x3b4c4b74	0.0031172903
223	0xbd69f687	-0.057119872
224	0xbcf1da25	-0.029522965
225	0xbc41fdbf	-0.011840283
226	0x3c520c05	0.0128202485
227	0x3a1866b3	0.0005813643
228	0x3d108039	0.035278533
229	0xbb4b982f	-0.003106605
230	0xbd889c7d	-0.06670473
231	0xbd98d640	-0.0746274
232	0xbd50a32b	-0.05093686
233	0x3dc03d34	0.093866736
234	0x3dbae351	0.091253884
235	0x3e0aae5e	0.13543078
236	0xbd4ca160	-0.049958587
237	0xbe884efc	-0.2662276
238	0xbee7d081	-0.45276263
239	0xbe3d51e6	-0.18488273
240	0xbd947250	-0.07248366
241	0x3e13ee06	0.14446267
242	0xbda6ef58	-0.0815112
243	0xbd8e7741	-0.0695634
244	0x3da1d416	0.0790178
245	0x3dadb2cb	0.08481368
246	0x3d175178	0.03694293
247	0xbe0958be	-0.13412759
248	0xbc86fdd3	-0.016478455
249	0x3caeb700	0.021327496
250	0x3cfd1497	0.030893607
251	0xbd413940	-0.04717374
252	0xbc84b9d2	-0.016201887
253	0x3d602f74	0.054732755
254	0x3cab701d	0.020927483
255	0xbd28b091	-0.04118401

net.net.0.bias f4 [100]
0	0x3d7d35ef	0.061819013
1	0x3c48bb5f	0.012251704
2	0xbee84ad2	-0.45369583
3	0x3d9eac0d	0.0774766
4	0x3c4df372	0.012570249
5	0xbc531658	-0.012883745
6	0xbc566008	-0.013084419
7	0x3d710c97	0.058849897
8	0xbe0303a3	-0.12794356
9	0xbf274374	-0.653373
10	0xbd7b0ec4	-0.06129338
11	0x3e2ec7d6	0.17068419
12	0xbb596b3e	-0.0033175494
13	0x3bc0c594	0.005882928
14	0xbd97dd21	-0.07415224
15	0xbe9dca1c	-0.3081826
16	0xbd9749f0	-0.07387149
17	0xbe561729	-0.20907272
18	0xbca5656c	-0.020189963
19	0x3db9f56d	0.090800144
20	0x3ec0afe6	0.376342
21	0xbe0b235d	-0.13587709
22	0x3e01b78c	0.12667674
23	0xbde20b0e	-0.11037265
24	0xbd97f5dd	-0.074199416
25	0xbda16687	-0.07880884
26	0x3d4b8411	0.049686495
27	0x3deb91e3	0.11502435
28	0x3ee710d6	0.45130032
29	0xbdd6a342	-0.10480358
30	0xbda70a56	-0.08156268
31	0x3e83deb8	0.25755858
32	0xbdfa5696	-0.12223546
33	0x3e2e4183	0.17017178
34	0xbed30881	-0.41217425
35	0xbd80e9a7	-0.06294566
36	0x3d8a6ca3	0.06759002
37	0x3e91e3c4	0.28494084
38	0x3d774eae	0.06037777
39	0xbc8f58e7	-0.017498447
40	0xbde4a3f4	-0.11164084
41	0x3d119de0	0.035550952
42	0x3e1f5407	0.15559398
43	0x3e3bc9fb	0.18338768
44	0xbdf734ea	-0.120706394
45	0xbea02ca0	-0.31284046
46	0xbe3cc0fc	-0.18432993
47	0xbda85fa7	-0.08221369
48	0xbd6abf54	-0.05731137
49	0x3ed39043	0.41321
50	0x3e6e6a3f	0.23282717
51	0x3d010a4c	0.03150396
52	0x3ec6a8f4	0.38800776
53	0xbddd382d	-0.1080173
54	0xbe947d9f	-0.2900209
55	0xbdd0d926	-0.10197668
56	0x3df82d20	0.12117982
57	0x3d3cc0cb	0.0460823
58	0x3effd317	0.49965736
59	0x3d7a1cf2	0.06106276
60	0xbe4e275e	-0.20132205
61	0xbe70d10c	-0.23517245
62	0x3e1bbb3d	0.15208144
63	0xbee5e3fc	-0.449005
64	0x3e7304e3	0.23732333
65	0xbce1b213	-0.027550733
66	0xbdde34b0	-0.10849893
67	0xbd9ec079	-0.07751555
68	0xbe0d13a0	-0.13777018
69	0x3ec0820e	0.37599224
70	0xbd9fcaac	-0.078023285
71	0xbdb568d8	-0.08857888
72	0x3eca2475	0.3948094
73	0xbd816b2a	-0.06319268
74	0x3d54db40	0.051966906
75	0xbe076b37	-0.13224493
76	0x3e135265	0.143869
77	0xbd2013a5	-0.039081234
78	0xbbdff906	-0.006835106
79	0x3d541088	0.051773578
80	0xbdd5d06a	-0.104401425
81	0xbd93f76e	-0.07224928
82	0xbebf26d6	-0.37334317
83	0xbd5501bf	-0.05200362
84	0xbd11ac72	-0.035564847
85	0xbea03e83	-0.31297693
86	0xbcf60ece	-0.030036356
87	0xbe0e8898	-0.13919294
88	0xbd0e0174	-0.034669355
89	0xbd8850dc	-0.06656048
90	0x3ee957e0	0.45574856
91	0xbec98e9c	-0.39366615
92	0x3d411464	0.047138587
93	0x3e443b59	0.19163264
94	0xbe153a03	-0.14572911
95	0xbde5a81d	-0.11213706
96	0xbe1ccf39	-0.15313424
97	0xbeae7620	-0.34074497
98	0xbe535364	-0.2063728
99	0xbd8b4aae	-0.068013534

net.net.2.weight f4 [100, 100]
0	0xbe538529	-0.20656265
1	0xbe491f2d	-0.19640799
2	0x3dc4f337	0.09616702
3	0x3d253c5c	0.040340766
4	0x3dc4bd9a	0.09606476
5	0xbe9fbba5	-0.3119785
6	0x3e111590	0.14168382
7	0xbe6308c4	-0.22171313
8	0xbe3e3e65	-0.18578489
9	0xbe8f4a4e	-0.27986377
10	0x3b10cd33	0.0022094965
11	0xbd5f6ab7	-0.05454513
12	0xbd3ef3c1	-0.04661918
13	0x3e2e98ea	0.1705052
14	0x3ea5ab0a	0.32357055
15	0x3e5aae29	0.213555
16	0xba5d8240	-0.000844989
17	0x3b381735	0.0028090004
18	0x3ec752be	0.38930315
19	0xbe000a2e	-0.12503883
20	0xbd7e866f	-0.062139925
21	0xbe00f5b0	-0.12593722
22	0xbe73eac7	-0.23820029
23	0xbd65d7eb	-0.05611412
24	0xbdcdcc12	-0.10048689
25	0x3db972d3	0.09055104
26	0x3f025f5f	0.50926775
27	0xbd01ba18	-0.031671613
28	0x3bfaeb7d	0.007657467
29	0xbdac2632	-0.08405723
30	0x3ea34094	0.31885207
31	0xbf0610a5	-0.5236915
32	0xbeae44db	-0.34036908
33	0xbe39a42b	-0.18129031
34	0x3ee1ef8d	0.44128075
35	0xbc062b4e	-0.008189036
36	0x3e95fdd6	0.29295224
37	0xbe39c5c0	-0.18141842
38	0x3e6afb52	0.22947434
39	0xbbddc8f8	-0.006768342
40	0xbda6d206	-0.081455275
41	0x3da25d10	0.079279065
42	0x3e2756ac	0.16341656
43	0xbe13d8d2	-0.14438179
44	0xbe267452	-0.1625531
45	0xbebc065c	-0.36723602
46	0x3ddf5810	0.109054685
47	0x3e2f46d7	0.17116867
48	0xbecb9d55	-0.39768472
49	0xbf0c541f	-0.5481586
50	0xbd970afd	-0.07375143
51	0x3d49ca36	0.04926511
52	0x3e17cc2e	0.14823982
53	0xbe651310	-0.22370553
54	0xbd9023b2	-0.07038058
55	0xbe2f7907	-0.17136012
56	0xbe7949fb	-0.24344628
57	0x3e3c4baf	0.18388246
58	0xbedda946	-0.43293208
59	0x3e379ab6	0.17930111
60	0xbd1fa7ab	-0.03897826
61	0x3ecea87b	0.40362915
62	0xbd3dbb11	-0.04632098
63	0x3de0397f	0.109484665
64	0x3eb71fce	0.35766453
65	0x3cfc7dc6	0.030821692
66	0x3de48139	0.1115746
67	0xbe6f0aca	-0.2334396
68	0xbe8b068f	-0.2715344
69	0xbe630b77	-0.22172342
70	0xbf0ea995	-0.5572751
71	0xbe575dc4	-0.21031862
72	0x3da52ebd	0.08065555
73	0x3e2559c7	0.16147529
74	0xbc831745	-0.016002307
75	0x3e11e26c	0.1424653
76	0x3a4a62fd	0.0007720439
77	0xbe5fcde2	-0.21855882
78	0x3dbeab01	0.0930996
79	0xbe99fd60	-0.30076122
80	0xbd463bda	-0.048396923
81	0xbdc37f01	-0.095457084
82	0x3ea7a458	0.32742572
83	0xbeb181c3	-0.34669313
84	0x3e5a0a63	0.21293025
85	0xbe75c351	-0.24000289
86	0xbdf98e35	-0.12185327
87	0xbeb80996	-0.35944813
88	0xbe1e9fc0	-0.15490627
89	0xbe795487	-0.24348651
90	0xbdc9e334	-0.09857789
91	0xbd0bf17e	-0.03416585
92	0xbc942d1e	-0.01808792
93	0xbd8472aa	-0.06467183
94	0xbde8e7e9	-0.11372358
95	0x3dc96d15	0.09835259
96	0x3e94324e	0.2894463
97	0xbd363616	-0.044485174
98	0x3e6e71bf	0.23285578
99	0xbd5495b1	-0.05190057
100	0x3db0abd1	0.086265214
101	0xbe18f2cf	-0.14936374
102	0xbed846f8	-0.42241645
103	0x3e7b811d	0.24560972
104	0x3d480778	0.048835248
105	0x3cd97d43	0.026548987
106	0xbd4937e4	-0.049125567
107	0xbe00f3a3	-0.1259294
108	0x3b962ea6	0.0045831976
109	0x3dd3d8c7	0.10344081
110	0x3dc85664	0.09782103
111	0xbe19451f	-0.14967774
112	0xbde3d3ff	-0.111244194
113	0x3d80b31f	0.06284165
114	0xbe278716	-0.16360125
115	0xbed68985	-0.41901794
116	0xbe697a4c	-0.22800559
117	0x3dde7278	0.10861677
118	0xbddf14fb	-0.108926736
119	0xbe5ecee8	-0.21758616
120	0x3eb4f0d4	0.35339987
121	0xbd73564e	-0.05940848
122	0xbeb97354	-0.362208
123	0x3eb5cf96	0.35509938
124	0xbec57651	-0.3856683
125	0x3dedc315	0.116094746
126	0xbe5abb83	-0.21360593
127	0xbeda32c2	-0.4261685
128	0xbd031718	-0.032004446
129	0xbde35917	-0.11100977
130	0xbe328165	-0.17432173
131	0xbee92793	-0.45538005
132	0x3d7e34a4	0.06206192
133	0xbe9baefb	-0.30406937
134	0x3e3bcc82	0.18339732
135	0x3e479ade	0.19492671
136	0xbe95154d	-0.29117814
137	0xbe19ac3f	-0.15007113
138	0x3d9c8036	0.07641642
139	0x3bc93394	0.006140182
140	0x3df54a65	0.1197708
141	0xbc869526	-0.016428541
142	0xbc30da88	-0.010794289
143	0x3dd13bb7	0.10216468
144	0xbe876a89	-0.26448467
145	0xbea035cf	-0.31291053
146	0x3e91f2b5	0.28505483
147	0xbe0410c5	-0.12897022
148	0x3dfcc86c	0.12342915
149	0xbef656d0	-0.48113108
150	0xbe483c15	-0.1955417
151	0xbe260f7e	-0.16216847
152	0xbe08b788	-0.13351262
153	0xbd3c0cb3	-0.04591055
154	0xbcd6159b	-0.02613335
155	0x3ea269e5	0.31721416
156	0xbddc1d42	-0.10747768
157	0xbee175ea	-0.44035274
158	0xbe8716dc	-0.26384628
159	0xbe5c32fa	-0.21503821
160	0x3e032eed	0.1281087
161	0xbefee394	-0.49783003
162	0xbe737b52	-0.23777512
163	0x3ee54e89	0.4478648
164	0xbd431fe0	-0.04763782
165	0x3da312c5	0.079625644
166	0xbe221829	-0.15829529
167	0x3cc85b46	0.024457585
168	0xbd91d076	-0.07119839
169	0x3d98e08a	0.074647024
170	0x3dc42b7e	0.09578608
171	0xbe1d46c5	-0.15359028
172	0xbe2679e3	-0.16257434
173	0xbec43cca	-0.38327628
174	0xbe15813c	-0.1460008
175	0xbe620f5a	-0.22076169
176	0xbec169b4	-0.37775958
177	0x3e95681b	0.2918099
178	0xbe8839ca	-0.2660659
179	0x3e04e2a0	0.12977076
180	0xbdfa1271	-0.12210549
181	0xbd6b1ccd	-0.057400513
182	0x3dd812f2	0.105504885
183	0x3e04307a	0.12909117
184	0xbdd64c7b	-0.10463806
185	0x3dc0d5a6	0.0941575
186	0xbea29570	-0.31754637
187	0x3ed08b48	0.40731263
188	0xbdc9a927	-0.098467164
189	0x3e63ddb6	0.22252545
190	0xbe011ca4	-0.12608582
191	0x3e67b2ae	0.22626755
192	0xbe1a6cc1	-0.15080549
193	0xbea4b887	-0.32172033
194	0xbedd4189	-0.43214062
195	0xbe42ed31	-0.19035794
196	0xbeab77dd	-0.33489886
197	0xbeb8ddb9	-0.3610666
198	0x3dd6ea42	0.104939
199	0xbddfffff	-0.10937499
200	0x3e547402	0.20747378
201	0xbd43fcd2	-0.04784853
202	0xbdbae5ad	-0.091258384
203	0x3df66fea	0.12033065
204	0x3d8c50c8	0.06851345
205	0x3ec48f78	0.38390708
206	0x3d8893ec	0.06668839
207	0xbe949391	-0.29018834
208	0xbe2748ea	-0.16336408
209	0x3e643149	0.22284426
210	0xbe331364	-0.17487866
211	0x3def575a	0.11686583
212	0xbe638261	-0.22217704
213	0xbd213a00	-0.039361954
214	0x3da31621	0.07963205
215	0xbe8dd4a9	-0.2770131
216	0xbeb84ddf	-0.3599691
217	0xbdceb2af	-0.10092675
218	0xbe3ce283	-0.18445782
219	0xbe66628b	-0.22498529
220	0x3d4d1d03	0.050076496
221	0xbdead4b0	-0.11466348
222	0xbe65faed	-0.22459002
223	0xbed567aa	-0.41680652
224	0x3e521b7d	0.20518298
225	0x3e167780	0.14694023
226	0xbe0a11a8	-0.13483298
227	0x3ce33200	0.027733803
228	0xbdc9e899	-0.098588176
229	0x3eb96ea8	0.36217237
230	0xbc76d660	-0.015065759
231	0xbe59bcd9	-0.21263446
232	0x3e9829b8	0.2971933
233	0xbe3ca914	-0.18423873
234	0xbe42294b	-0.18961065
235	0x3e13843f	0.14405917
236	0xbc3296b9	-0.010900193
237	0xbcdf3957	-0.027249021
238	0xbdd5479b	-0.10414048
239	0xbdcf1527	-0.10111456
240	0xbd785228	-0.060625225
241	0x3d59c302	0.05316449
242	0x3d431d9f	0.04763567
243	0x3df88ad0	0.121358514
244	0x3dc94924	0.098284036
245	0x3e656d95	0.22405083
246	0xbdaf1653	-0.0854918
247	0xbe4a5829	-0.19760193
248	0xbd4f0d1a	-0.050549604
249	0xbdf74776	-0.12074177
250	0xbd643278	-0.055712193
251	0x3d8dd538	0.06925434
252	0xbdd288e9	-0.1028002
253	0x3e58748f	0.21138214
254	0xbe50587c	-0.20346254
255	0xbe17659a	-0.14784852

net.net.2.bias f4 [100]
0	0xbe9ffdd0	-0.3124833
1	0x3e8f872a	0.2803281
2	0x3bf1ff03	0.007385136
3	0xbcb2a595	-0.021807471
4	0xbda12264	-0.078678876
5	0xbe61161a	-0.21981087
6	0xbe1e08eb	-0.1543309
7	0xbe14d540	-0.14534473
8	0xbd76be67	-0.060240176
9	0xbebcd99f	-0.36884782
10	0xbe552983	-0.20816617
11	0xbe39c1a6	-0.18140277
12	0xbe468ac8	-0.19388878
13	0xbeaa5b57	-0.33272812
14	0xbc932d74	-0.01796601
15	0x3d0d11d7	0.03444084
16	0xbed5587f	-0.4166908
17	0x3dbf782e	0.09349094
18	0xbe62484c	-0.22097892
19	0xbe830667	-0.25590822
20	0x3e462664	0.19350582
21	0xbef42392	-0.47683388
22	0xbe06cfc5	-0.13165195
23	0xbe1f944d	-0.15583916
24	0xbee0ba60	-0.43892193
25	0xbdd49ca2	-0.10381438
26	0x3ebc294f	0.36750266
27	0xbd8150c0	-0.0631423
28	0xbe66652c	-0.22499532
29	0xbe201e2f	-0.15636514
30	0xbe246ffd	-0.16058345
31	0xbdb5e6d8	-0.088819206
32	0xbea003d0	-0.3125291
33	0xbdebf0a1	-0.11520506
34	0x3e8f87eb	0.28033385
35	0x3dace772	0.08442582
36	0x3e17d0f1	0.14825799
37	0x3e1ef228	0.15522063
38	0xbe85eb00	-0.26155853
39	0xbe4e3fd6	-0.20141539
40	0xbf007026	-0.50171125
41	0x3eaca5e2	0.3372031
42	0x3dce539a	0.100745395
43	0xbea1c12a	-0.31592685
44	0x3de8f9cd	0.11375771
45	0x3d33097d	0.04371022
46	0x3e5968a3	0.21231322
47	0xbd8a9175	-0.06766025
48	0xbda55c7f	-0.08074283
49	0x3c8ff935	0.017574886
50	0xbdd9e3c3	-0.10639145
51	0x3d833c95	0.064080395
52	0x3e2ebea2	0.17064908
53	0xbeab7497	-0.33487388
54	0x3d7490e3	0.059708487
55	0x3d2ca58d	0.04215007
56	0xbdbdd1e9	-0.09268553
57	0xbe9d2c38	-0.306978
58	0xbe0fb7fc	-0.14035028
59	0x3f3ad999	0.7298828
60	0xbe7e5dc0	-0.2484045
61	0x3dbb71e4	0.09152582
62	0xbe46058d	-0.19338055
63	0xbe78ff7e	-0.24316213
64	0xbc2ddb4a	-0.010611365
65	0xbea1b02c	-0.3157972
66	0xbe87081d	-0.26373377
67	0xbd3e398d	-0.046441603
68	0xbddbffb8	-0.10742134
69	0x3e1a8916	0.15091357
70	0xbe832fce	-0.2562241
71	0xbe90a01e	-0.2824716
72	0x3c32fa35	0.010923912
73	0xbeeb3e9c	-0.45946205
74	0xbeadfe13	-0.33982906
75	0xbea0cc79	-0.31406
76	0xbe0cfeb2	-0.13769034
77	0x3eba938d	0.36440697
78	0xbdd78bd6	-0.105247185
79	0xbd66ee2b	-0.05637948
80	0xbee3a0cd	-0.4445862
81	0xbded9f87	-0.11602693
82	0xbeae40bf	-0.34033772
83	0x3ebb1344	0.36538136
84	0xbcf298c4	-0.02961386
85	0xbb2fd13c	-0.0026827594
86	0xbe03a9ee	-0.12857792
87	0xbdcc9efc	-0.09991261
88	0xbd342ed5	-0.043989975
89	0xbd99e18a	-0.07513721
90	0xbe3992e5	-0.18122442
91	0x3de7bb5e	0.11315034
92	0xbe968768	-0.29400182
93	0xbe50702e	-0.20355293
94	0xbdb18097	-0.08667105
95	0xbe3a252c	-0.18178242
96	0xbec04cac	-0.37558496
97	0xbd7ab6a8	-0.06120935
98	0xbd6cd721	-0.05782235
99	0x3cb138c9	0.021633523

net.net.4.weight f4 [100, 100]
0	0xbda1c071	-0.078980334
1	0x3e4c896b	0.19974296
2	0xbdc8f102	-0.098115936
3	0x3e9eab8d	0.30990258
4	0xbe0ffcf9	-0.14061345
5	0x3cb270e2	0.021782342
6	0x3dce8d54	0.1008555
7	0xbcadb544	-0.021204598
8	0xbe4e282f	-0.20132516
9	0xbe43a6b2	-0.19106558
10	0xbdb31ed7	-0.087461166
11	0x3d75f2ae	0.06004589
12	0xbe105353	-0.14094286
13	0x3d1998b5	0.03749915
14	0x3e1cdf51	0.15319563
15	0x3cc308ab	0.023807844
16	0xbd956359	-0.0729434
17	0xbd6e029e	-0.058107965
18	0x3dfe48cc	0.12416229
19	0x3ddd8b7f	0.108176224
20	0xbda00f6b	-0.07815441
21	0xbe2d9d5d	-0.1695456
22	0x3e173b99	0.14768828
23	0x3eb70460	0.35745525
24	0x3d8b14d2	0.067910805
25	0x3e958e90	0.2921033
26	0xbd7da25c	-0.061922416
27	0xbe298e90	-0.1655829
28	0xbdbf360a	-0.09336479
29	0x3d4692de	0.048479907
30	0x3debd983	0.115160964
31	0xbc7959be	-0.01521915
32	0x3e0e7aac	0.13913983
33	0x3ca6c1fc	0.02035617
34	0xbe3fc600	-0.18727875
35	0xbda6e506	-0.081491515
36	0xbd39007b	-0.045166474
37	0xbe60adb9	-0.2194127
38	0x3d24a055	0.040191967
39	0x3cca7fbc	0.024719112
40	0xbe9f57ff	-0.31121823
41	0x3e72c27d	0.23707004
42	0xbe209934	-0.15683442
43	0xbded43c5	-0.11585192
44	0xbe18244c	-0.14857596
45	0x3e78f266	0.24311218
46	0xbe0c508b	-0.137026
47	0xbdddb0a2	-0.10824706
48	0x3d6bd896	0.0575796
49	0x3e898ec8	0.26866746
50	0xbd31436a	-0.04327718
51	0xbca85d5e	-0.020552333
52	0xbdcdc940	-0.10048151
53	0x3c8ec0dc	0.017425947
54	0xbb411ff7	-0.0029468515
55	0xbe512e7e	-0.20427892
56	0x3c8046bb	0.015658727
57	0x3e08038a	0.132826
58	0xbd242ce2	-0.040081866
59	0xbe318506	-0.173359
60	0x3dbe8808	0.0930329
61	0x3d2daf65	0.042403597
62	0xbdf0179b	-0.117232524
63	0x3c99b92a	0.01876505
64	0x3daa0808	0.08302313
65	0x3cb28eec	0.021796666
66	0xbe963625	-0.29338184
67	0xbe6bf219	-0.23041572
68	0xbea99bd4	-0.331267
69	0xbd490ccc	-0.04908447
70	0xbd87cb25	-0.066305436
71	0xbda48c29	-0.08034546
72	0xbca48a2c	-0.020085417
73	0xbeaa2ea7	-0.33238718
74	0xbe16972a	-0.14706102
75	0xbd543e13	-0.05181701
76	0x3db0b1cc	0.08627662
77	0x3e03f2f9	0.12885655
78	0xbe0bede7	-0.13664971
79	0xbb052764	-0.0020317668
80	0x3e6b038c	0.22950572
81	0xbe30e16e	-0.17273495
82	0x3d42ebdf	0.047588225
83	0x3bf645f4	0.0075156633
84	0xbe030ef8	-0.12798679
85	0x3dec89b9	0.11549706
86	0xbe0b5d52	-0.13609818
87	0xbd4fef30	-0.050765216
88	0xbe3ff1ea	-0.18744627
89	0x3c4355c9	0.011922308
90	0xbde83c4c	-0.11339626
91	0xbe2f62e4	-0.17127568
92	0xbd85dc2b	-0.06536134
93	0xbe83c7b0	-0.25738287
94	0x3d5b5aac	0.05355327
95	0xbe5154ef	-0.20442556
96	0x3e6b8525	0.2300001
97	0x3aa62e86	0.001267866
98	0xbcadfe32	-0.021239374
99	0xbe6780c6	-0.22607717
100	0xbe2239c9	-0.15842356
101	0xbe7f3cc7	-0.24925528
102	0xbd685e96	-0.05673083
103	0xbd4f38b0	-0.05059117
104	0xbc8bf074	-0.01708243
105	0xbdd1109e	-0.102082476
106	0x3d73ac38	0.059490412
107	0x3e057803	0.13034062
108	0x3db14675	0.08656017
109	0x3e8ec857	0.27887222
110	0x3da56c6b	0.0807732
111	0xbe5f6603	-0.21816258
112	0x3e20ef4d	0.15716286
113	0x3d33eb77	0.04392573
114	0x3bec02a0	0.0072024614
115	0xbd3048f7	-0.043038335
116	0xbe8cbe5b	-0.2748898
117	0xbd760744	-0.060065523
118	0x3e5755ec	0.2102887
119	0xbc558f9e	-0.013034729
120	0x3e47a5b4	0.19496804
121	0x3e16a188	0.14710057
122	0x3d32d862	0.04366339
123	0xbe85d579	-0.2613943
124	0xbf03f4bb	-0.51545304
125	0xbe334548	-0.17506897
126	0xbe80cf70	-0.25158262
127	0xbcb77b96	-0.022397798
128	0x3eaaf9e1	0.33393767
129	0x3d88211f	0.06646942
130	0xbcd6e1ff	-0.02623081
131	0xbeabcd54	-0.3355509
132	0x3d9f5559	0.07779951
133	0xbdf8edda	-0.121547416
134	0x3ca3af62	0.01998109
135	0xbea85acf	-0.3288178
136	0xbe698455	-0.22804387
137	0xbe85f641	-0.2616444
138	0x3db6c664	0.08924559
139	0xbd04ed7b	-0.03245304
140	0xbb7736f5	-0.0037721966
141	0xbe476d16	-0.19475207
142	0xbe6f3604	-0.23360449
143	0x3dbe0932	0.092790976
144	0x3e26ca85	0.16288193
145	0xbe95c0a8	-0.29248548
146	0xbd25ca5a	-0.04047618
147	0xbe0aef29	-0.13567795
148	0x3d86b09b	0.065766536
149	0x3be25088	0.0069065727
150	0xbe2bfb89	-0.16795172
151	0xbe85b953	-0.26117954
152	0xbe232e24	-0.1593557
153	0x3e3b55d9	0.18294467
154	0x3de12a14	0.10994354
155	0xbe4aa360	-0.19788885
156	0x3dc38699	0.09547157
157	0x3e09e9cf	0.13468097
158	0x3e22e91d	0.15909238
159	0x3e080c6d	0.1328599
160	0x3e71d039	0.23614587
161	0xbe2eb8a9	-0.1706263
162	0xbe871b4e	-0.2638802
163	0x3d9ef3e5	0.07761363
164	0x3dde32d6	0.1084954
165	0xbda572b3	-0.08078518
166	0xbda33231	-0.079685576
167	0xbea80948	-0.3281958
168	0xbe002523	-0.12514167
169	0xbe6a49fc	-0.22879785
170	0x3e58d059	0.21173228
171	0x3d4f4cfd	0.05061053
172	0x3c67a06d	0.01413737
173	0x3b8ede0e	0.004359967
174	0x3d96b95b	0.073595725
175	0x3e3b45ce	0.18288347
176	0xbd626f19	-0.055281732
177	0xbe1374aa	-0.14399973
178	0x3dccd4d2	0.1000153
179	0xbe338927	-0.17532788
180	0x3e27d75c	0.16390747
181	0xbd12892b	-0.035775345
182	0xbd159889	-0.036522422
183	0x3de5766c	0.11204228
184	0xbdc14071	-0.09436119
185	0x3cb419ff	0.021985052
186	0x3d0e6719	0.03476629
187	0x3e218fc4	0.15777498
188	0x3d11d9f1	0.035608236
189	0x3dde731c	0.10861799
190	0x3e15cec6	0.14629659
191	0xbdfba0c6	-0.122865245
192	0x3e514169	0.20435108
193	0xbe1e616f	-0.15466855
194	0x3dfe6897	0.12422293
195	0x3e4f481e	0.20242354
196	0x3ea5db0f	0.3239369
197	0xbe21d2b7	-0.15803038
198	0xbe479008	-0.19488537
199	0x3e61fd05	0.22069176
200	0xbd732351	-0.059359852
201	0x3eb7caa6	0.35896796
202	0x3c5d9161	0.013523431
203	0xbe044e36	-0.1292046
204	0x3e0adf17	0.13561665
205	0x3d373dac	0.04473655
206	0x3e0ddad1	0.13853003
207	0xbe225e54	-0.15856296
208	0x3e1fe92f	0.15616296
209	0xbe090ce6	-0.13383827
210	0xbd317e3c	-0.043333277
211	0xbc137946	-0.009001082
212	0xbdb6f471	-0.08933342
213	0xbe374277	-0.17896448
214	0xbe0d2066	-0.1378189
215	0xbe4af3d9	-0.19819583
216	0xbed9fc56	-0.4257533
217	0xbe6cbe7c	-0.23119539
218	0x3d702354	0.05862744
219	0xbe1ad47b	-0.15120117
220	0x3daee510	0.08539784
221	0xbd8f7280	-0.07004261
222	0xbd927ddc	-0.07152912
223	0xbda67ee9	-0.08129675
224	0xbbb09e55	-0.0053899684
225	0x3e8b7433	0.2723709
226	0xbe305611	-0.17220332
227	0xbda446b0	-0.08021295
228	0x3d84197a	0.06450172
229	0x3e93260b	0.28739962
230	0xbe257afd	-0.16160198
231	0xbd886dff	-0.06661605
232	0x3d906afa	0.07051654
233	0xbe77484d	-0.24148674
234	0x3dbefe76	0.09325878
235	0x3dc6e622	0.09711863
236	0xbe8f0bb5	-0.2793862
237	0xbe25c291	-0.16187502
238	0xbe097713	-0.1342433
239	0xbe7d5762	-0.24740365
240	0xbddc9260	-0.10770106
241	0x3e83ae51	0.2571893
242	0x3e744b8f	0.23856948
243	0xbdf72c15	-0.12068955
244	0xbb007db4	-0.0019606175
245	0x3d9436a3	0.072369836
246	0x3e5f228b	0.21790521
247	0xbd0e589b	-0.03475247
248	0xbdefdb08	-0.11711699
249	0x3e9a0fae	0.30090088
250	0xbcb46b8c	-0.022023939
251	0x3cf96b60	0.030446708
252	0xbe342b4b	-0.1759464
253	0xbdbe607e	-0.09295748
254	0x3df4f063	0.11959913
255	0xbe36a01a	-0.17834511

net.net.4.bias f4 [100]
0	0xbe2904cb	-0.16505735
1	0xbe318695	-0.17336495
2	0x3bc3f020	0.005979553
3	0x3c7efeaf	0.015563651
4	0xbda3553a	-0.0797524
5	0xbdc9a145	-0.09845213
6	0xbe2cad61	-0.16863014
7	0xbe0ff5ff	-0.14058684
8	0xbde24b6a	-0.1104954
9	0xbdf078a0	-0.117417574
10	0xbd42b978	-0.047540158
11	0xbe16c541	-0.14723684
12	0xbccfca75	-0.025365094
13	0x3d07eab1	0.033182804
14	0x3d194e84	0.037428394
15	0xbdef4396	-0.11682813
16	0xbd9ed4ba	-0.07755418
17	0x3bb5393b	0.005530504
18	0x3d540173	0.051759195
19	0x3d965798	0.07340926
20	0xbdf43bf4	-0.11925498
21	0xbde1522f	-0.110020034
22	0x3d430d5f	0.047620174
23	0x3cc9cf01	0.02463484
24	0xbd346c5b	-0.04404865
25	0xbe06eb11	-0.13175608
26	0xbca01a70	-0.019543856
27	0xbdaf4500	-0.085580826
28	0xbd44e17c	-0.0480666
29	0x3e0404f9	0.12892522
30	0xbd839ede	-0.06426786
31	0xbe29b702	-0.16573718
32	0xbd37c2c0	-0.044863462
33	0x3eb7fe0c	0.3593601
34	0x3d2579f5	0.04039951
35	0xbc8d2604	-0.017230041
36	0x3d607e9c	0.054808244
37	0xbda8b21d	-0.082370974
38	0xbc9fe3bd	-0.019517774
39	0xbe2b21f6	-0.16712174
40	0xbe4a06a9	-0.19729103
41	0xbe641119	-0.22272147
42	0xbcd3814b	-0.025818488
43	0xbe179064	-0.14801174
44	0x3cea6b73	0.028615689
45	0x3dc39550	0.095499635
46	0xbd8fe9cb	-0.07027014
47	0x3e119f9a	0.1422104
48	0xbe8890ca	-0.26672965
49	0x3b5f66d5	0.0034088392
50	0xbce80413	-0.028322255
51	0xbe687a31	-0.22702862
52	0x3e1cc054	0.15307742
53	0xbd8dd0b2	-0.06924571
54	0xbd9a925f	-0.07547449
55	0x3ef12c18	0.47103953
56	0x3e677e78	0.22606838
57	0xbca83ab5	-0.020535806
58	0xbd0917fc	-0.03347014
59	0xbddcc1cd	-0.10779152
60	0xbe25cf60	-0.16192389
61	0x3ab683ad	0.001392474
62	0xbe84eddb	-0.2596272
63	0xbd285a12	-0.041101523
64	0x3e9bcfdb	0.3043202
65	0xbd3fbb4b	-0.046809476
66	0x3d5af698	0.053457826
67	0xbd7b00cc	-0.061280057
68	0xbe9a227f	-0.30104443
69	0xbdc447f6	-0.09584038
70	0xbd35c5de	-0.044378154
71	0x3dbb952f	0.09159314
72	0x3df689da	0.12038012
73	0x3d81ced8	0.063382804
74	0xbd9ff508	-0.07810408
75	0xbcebfd8e	-0.028807428
76	0xbea00c1b	-0.31259236
77	0xbe8f2194	-0.27955306
78	0xbc8947a0	-0.016757786
79	0xbe0193a3	-0.12653975
80	0x3e5d19cc	0.21591872
81	0xbd027477	-0.03184935
82	0x3e333a0a	0.17502609
83	0xbd00831e	-0.031375043
84	0xbe453576	-0.19258675
85	0xbe001cb4	-0.1251095
86	0xbd82c82f	-0.06385838
87	0xbc29de76	-0.01036798
88	0xbdafbbf6	-0.085807726
89	0xbc12e72e	-0.00896625
90	0xbea9d14e	-0.331675
91	0xbdcdb538	-0.1004433
92	0x3d96da11	0.073658116
93	0xbe1e332c	-0.15449208
94	0xbcc434e1	-0.023950996
95	0xbde348c5	-0.11097864
96	0x3c918900	0.017765522
97	0xbd970f51	-0.07375968
98	0xbd0287a5	-0.031867642
99	0xbda456f0	-0.080243945

net.net.6.weight f4 [100, 100]
0	0xbd9e2f7b	-0.077239
1	0x3dc1f242	0.09470035
2	0x3c3d67ef	0.011560424
3	0xbe362c1b	-0.17790262
4	0x3d63cbe3	0.055614363
5	0x3c26908c	0.010166299
6	0x3c59384b	0.01325805
7	0xbe0e8077	-0.13916193
8	0x3ded28e7	0.11580067
9	0xbe127a6c	-0.14304513
10	0x3db5fe9a	0.08886452
11	0x3e489708	0.19588864
12	0xbe2e31b5	-0.17011149
13	0x3d858f03	0.06521418
14	0xbc0fd2e6	-0.008778309
15	0xbd4b742c	-0.049671337
16	0x3df63eed	0.12023721
17	0xbcf1065e	-0.029421981
18	0xbe5e596b	-0.21713798
19	0x3d09dc15	0.033657152
20	0xbcaf0983	-0.02136684
21	0xbe470e4d	-0.19439049
22	0x3da78e98	0.081814945
23	0xbcd93496	-0.026514333
24	0xbdd2fa51	-0.1030165
25	0xbe0a4288	-0.13501942
26	0xbd083346	-0.033252023
27	0x3d7b4a11	0.061349932
28	0x3c25750d	0.010098708
29	0x3dcca775	0.099928774
30	0xbd980de6	-0.07424526
31	0xbd89b496	-0.06723897
32	0x3d8a141f	0.06742119
33	0xbe055f83	-0.13024716
34	0xbe2ec0b1	-0.17065693
35	0x3de64b59	0.1124484
36	0xbe0fa900	-0.14029312
37	0x3cf555ca	0.029948134
38	0x3d7ff209	0.062486682
39	0xbe1c601b	-0.15271036
40	0x3d4aee68	0.04954377
41	0x3de051f8	0.10953134
42	0xbdb65ccb	-0.089044176
43	0x3d9bbf25	0.07604817
44	0xbc95f132	-0.018303487
45	0x3d156f7d	0.036483277
46	0xbde37b1d	-0.11107466
47	0x3d6cdeb7	0.057829585
48	0x3b91b9f1	0.004447215
49	0xbe253341	-0.16132833
50	0xbe1b2ea1	-0.15154506
51	0x3e0d811d	0.13818784
52	0xbe5364a5	-0.20643862
53	0xbe2fcfe4	-0.17169148
54	0x3dd8a350	0.105780244
55	0xbd21ac15	-0.03947075
56	0x3c84a447	0.016191615
57	0xbdaa2b50	-0.083090425
58	0xbdf45135	-0.119295515
59	0x3cd63195	0.02614669
60	0x3d481d30	0.04885596
61	0xbdbda6aa	-0.09260304
62	0x3d1b2a39	0.037882064
63	0x3de063f9	0.10956568
64	0x3d525e02	0.051359184
65	0x3d4aae65	0.04948272
66	0xbe5e22ad	-0.21692915
67	0x3e26fc73	0.16307239
68	0xbc8cbc48	-0.017179623
69	0x3e20770c	0.15670413
70	0xbe2949a5	-0.16532
71	0x3e1e2f59	0.15447749
72	0x3ce99b19	0.02851634
73	0x3dc91ca3	0.09819915
74	0x3e4d9ec7	0.200801
75	0xbb75a53a	-0.0037482516
76	0xbe714ffe	-0.23565671
77	0x3cbc2ec9	0.022971528
78	0x3e0f0443	0.1396647
79	0xbd24a6b8	-0.040198058
80	0x3c341438	0.010991149
81	0x3d89e9d9	0.06734056
82	0x3d064080	0.032776356
83	0xbe37e772	-0.17959383
84	0xbe569ae8	-0.2095753
85	0x3dd33f79	0.10314841
86	0xbe4fa21e	-0.20276687
87	0x3d8807b9	0.06642098
88	0x3ce5d78e	0.028056886
89	0x3dee27eb	0.116287075
90	0xbbaddd64	-0.005305933
91	0xbe1714a2	-0.14753965
92	0x3d8e8dbc	0.069606274
93	0xbdd9466c	-0.10609135
94	0x3e2be6c1	0.16787244
95	0x3c67fdef	0.014159664
96	0xbe6a3627	-0.2287222
97	0xbd9cdb24	-0.07658985
98	0xbe54525c	-0.20734543
99	0x3df5f9e9	0.12010557
100	0xbba8bbc1	-0.005149335
101	0x3dd1bbd8	0.102409065
102	0x3c30b18e	0.01078452
103	0x3da4c141	0.08044673
104	0x3e08c7f2	0.13357523
105	0xbc261050	-0.010135725
106	0xbc944ab6	-0.018102031
107	0xbd882e8b	-0.06649502
108	0xbe54fc36	-0.20799336
109	0xba90b326	-0.0011039719
110	0x3e2a1963	0.16611247
111	0x3cc968bd	0.024586076
112	0xbd4b670b	-0.049658816
113	0x3e10581f	0.14096116
114	0xbe01336f	-0.12617277
115	0xbd45d627	-0.048299935
116	0x3ddcf466	0.10788803
117	0x3de20e37	0.110378675
118	0xbd2b7f2a	-0.04186932
119	0xbd1cd3bb	-0.03828786
120	0xbbcb758e	-0.006209082
121	0xbe935989	-0.28779247
122	0xbc762091	-0.015022413
123	0xbce3239f	-0.027726946
124	0xbd1a121f	-0.037614938
125	0xbe2e9b46	-0.1705142
126	0xbe1125a1	-0.1417451
127	0xbd3962ae	-0.045260124
128	0x3d74cc47	0.059765127
129	0x3e83241b	0.25613484
130	0x3da90060	0.08252025
131	0xbe138043	-0.14404397
132	0x3d5bffac	0.053710625
133	0xbc9281a0	-0.017884076
134	0x3dbc4de0	0.09194541
135	0xbdbbd307	-0.0917111
136	0x3e381b20	0.17979097
137	0xbe825efc	-0.25463092
138	0xbdbf32bd	-0.093358494
139	0x3df07492	0.11740984
140	0xbe35e8b9	-0.17764558
141	0x3e527db1	0.2055576
142	0x3c310e79	0.010806673
143	0x3cbcbf87	0.023040546
144	0xbcfcc053	-0.030853426
145	0x3dbcfd5c	0.09228012
146	0x3dbd768c	0.09251127
147	0xbb28f2bd	-0.002577945
148	0x3d19048d	0.037357856
149	0xbe120dc2	-0.1426306
150	0x3e4c74a1	0.19966365
151	0x3cdb6f98	0.02678661
152	0xbe19f197	-0.15033565
153	0xbe1fecd1	-0.15617682
154	0x3cac3cab	0.021025022
155	0x3d196536	0.037450038
156	0xbe31d921	-0.17367984
157	0xbe065b84	-0.13120848
158	0xbc99d7f1	-0.018779727
159	0xbe65e297	-0.22449718
160	0xbd812458	-0.0630576
161	0xbe40c093	-0.18823461
162	0xbc180718	-0.009279035
163	0x3e0e0669	0.13869633
164	0xbea0692f	-0.3133025
165	0xbe1c9bb6	-0.15293774
166	0xbe80ff7a	-0.25194913
167	0x3e001670	0.12508559
168	0xbcec0117	-0.028809113
169	0x3d761d82	0.060086735
170	0xbbdb1a21	-0.0066864644
171	0xbd8cc9a4	-0.068743974
172	0xbe07df7c	-0.13268846
173	0x3ce3e744	0.027820237
174	0xbd58203f	-0.052765127
175	0xbc1e81d9	-0.009674513
176	0xbe17079b	-0.14748995
177	0xbd803305	-0.06259731
178	0xbd7a26ef	-0.061072286
179	0x3d6e26b6	0.058142386
180	0xbe0e53c6	-0.13899145
181	0xbe8b6f68	-0.27233434
182	0xbd9549c4	-0.0728946
183	0x3db8cf32	0.09023894
184	0xbdfdda8c	-0.123952
185	0xbe32f243	-0.17475228
186	0xbd001d16	-0.03127774
187	0x3d7a2fb3	0.061080646
188	0xbdda8a4b	-0.106709085
189	0xbd4bf8a5	-0.049797673
190	0xbe0ea041	-0.1392832
191	0x3d7f7556	0.06236776
192	0x3dfc0a71	0.12306679
193	0xbe587a5d	-0.21140428
194	0x3d8a2db2	0.06746997
195	0x3d505834	0.050865367
196	0xbe817cd0	-0.25290537
197	0x3e20bd00	0.15697098
198	0x3dd20e60	0.10256648
199	0xbde21e8b	-0.11040982
200	0x3b91b8e2	0.0044470886
201	0xbba713e8	-0.0050988086
202	0x3d859425	0.06522397
203	0x3d920dcf	0.0713154
204	0xbe188c5a	-0.1489729
205	0x3c6b05e6	0.014344668
206	0xbda2741a	-0.07932301
207	0xbe5bd173	-0.21466617
208	0x3e06c003	0.13159184
209	0xbd7588b2	-0.059944816
210	0xbde5b886	-0.11216836
211	0xbe3c490f	-0.18387245
212	0x3e5feddc	0.2186808
213	0x3de465b8	0.11152214
214	0x3dbcba3c	0.09215209
215	0x3e7f1683	0.24910931
216	0xbd12401c	-0.03570567
217	0xbe110d44	-0.14165217
218	0x3e4c3c6f	0.19944929
219	0xbe27fce3	-0.16405062
220	0x3d973206	0.07382588
221	0x3e2a44b4	0.1662777
222	0xbe7d33df	-0.24726819
223	0x3e0e2eed	0.13885088
224	0x3d87cd86	0.06630997
225	0xbe262252	-0.1622403
226	0x3d51edea	0.051252283
227	0xbe21517d	-0.15753742
228	0xbd5835a0	-0.052785516
229	0xbe07ef09	-0.13274778
230	0xbdd66bf2	-0.10469808
231	0x3de640f8	0.112428606
232	0x3dc91f8c	0.0982047
233	0xbe08990f	-0.13339637
234	0x3d0ab691	0.033865515
235	0xbe274d00	-0.16337967
236	0xbded3b49	-0.11583573
237	0x3d4926a5	0.04910912
238	0xbd8e6ad9	-0.06953973
239	0xbe7014f0	-0.23445487
240	0xbddf7a0a	-0.10911949
241	0xbc508696	-0.0127274
242	0x3dc7154a	0.097208574
243	0x3e360839	0.17776574
244	0xbd2d11ca	-0.042253293
245	0x3e06e770	0.13174224
246	0xbdf87f65	-0.121336736
247	0xbe3c6d8f	-0.18401168
248	0xbe17e1cf	-0.14832233
249	0x3d46bf6e	0.048522405
250	0xbe5e7ebf	-0.21728037
251	0x3dcc76ab	0.099835716
252	0xbda1b3ef	-0.07895648
253	0xbe77ddd4	-0.24205714
254	0xbd1ca68a	-0.03824476
255	0xbe03e88d	-0.1288168

net.net.6.bias f4 [100]
0	0x3c6e5239	0.014545971
1	0x3e28ad3d	0.16472335
2	0xbe4233d0	-0.18965077
3	0x3deddedd	0.116147734
4	0x3d20bcc6	0.03924253
5	0xbbc4ce4e	-0.0060060387
6	0xbe15f739	-0.14645089
7	0x3c93179b	0.017955592
8	0x3e204630	0.15651774
9	0x3cde3bc7	0.027128113
10	0x3e3db5ca	0.18526378
11	0xbcb81dff	-0.02247524
12	0xbcd5fd7c	-0.026121847
13	0x3df09aa7	0.117482476
14	0xbd6d47e1	-0.057929877
15	0xbd49e5e4	-0.049291506
16	0xbe1ce98d	-0.15323468
17	0x3d2436d5	0.040091354
18	0xbe963398	-0.29336238
19	0x3e40f73b	0.18844311
20	0x3d85a4a0	0.0652554
21	0x3d0b055a	0.03394065
22	0xbca56d7e	-0.020193812
23	0x3ee47e4f	0.44627616
24	0x3e27ca61	0.16385795
25	0xbd3dace9	-0.046307478
26	0xbb654783	-0.0034985251
27	0x3ce1cec5	0.027564416
28	0x3dfa9027	0.12234526
29	0x3e81f0d2	0.25379044
30	0x3b557e22	0.0032576402
31	0x3d93f647	0.07224708
32	0x3d058ba7	0.032603886
33	0xbceeef59	-0.029166864
34	0xbc89d587	-0.01682545
35	0xbce4af17	-0.02791552
36	0x3c8d0a91	0.017216953
37	0x3d23f2fe	0.040026657
38	0xbd575087	-0.05256703
39	0x3c8ee2e5	0.017442176
40	0x3c3c020c	0.011475097
41	0x3df6ac06	0.120445296
42	0x3d99eac6	0.075154826
43	0xbb83185c	-0.0040007066
44	0xbcaae4d0	-0.02086106
45	0xbe0da0a3	-0.1383081
46	0xbe6a821e	-0.22901198
47	0x3e95e52e	0.29276413
48	0x3da5e464	0.08100203
49	0xbdb806f2	-0.089857
50	0x3c53d347	0.01292879
51	0xbd843e3a	-0.06457181
52	0x3e808e8e	0.2510876
53	0xbcab8704	-0.020938404
54	0xbb0c5773	-0.0021414428
55	0x3e82c04f	0.25537345
56	0xbd1f5938	-0.038903445
57	0xbe7d81d9	-0.24756564
58	0xb7dc2113	-2.6241445e-05
59	0x3d4c1af3	0.04983039
60	0x3e6287b9	0.22122087
61	0xbd9bbc3e	-0.07604264
62	0xbe50936b	-0.20368735
63	0xbdcb696e	-0.099322185
64	0xbd18989f	-0.037254926
65	0x3e2ed4a6	0.17073306
66	0x3ec3cc11	0.38241628
67	0x3be87d2c	0.007095
68	0xbdde1220	-0.10843301
69	0x3c7a88b2	0.01529138
70	0xbdf165c3	-0.11786988
71	0x3cb10cf5	0.021612624
72	0xbd909169	-0.07058985
73	0xbdd91f65	-0.10601691
74	0x3e90f32a	0.2831052
75	0xbdc22f68	-0.09481698
76	0x3cadae96	0.021201413
77	0x3cb061a5	0.021530936
78	0x3e988e54	0.29796088
79	0x3d402355	0.046908695
80	0xbe06f832	-0.13180616
81	0xbe7a557e	-0.24446675
82	0x3ef32da0	0.47495747
83	0xbdc7c001	-0.09753419
84	0xbcf967c2	-0.030444983
85	0xbc298ab0	-0.010348007
86	0xbde5f992	-0.112292424
87	0x3da301d3	0.07959332
88	0x3e176285	0.14783676
89	0xbb72b979	-0.003703682
90	0xbcdfa957	-0.027302427
91	0x3c92ad6d	0.017904961
92	0xbe06fc70	-0.13182235
93	0x3e0ef230	0.13959575
94	0x3db5a0d4	0.08868566
95	0xbe443626	-0.19161281
96	0x3e40479e	0.1877732
97	0x3e2c7375	0.16840918
98	0x3d2ccaf1	0.042185728
99	0x3dcfc141	0.10144282
